src/frontend/simple_turim.pt (torch, 21687 bytes, 36 tensors)

weight_ih_l0 f4 [16, 7]
0	0xbd2895b9	-0.04115841
1	0xbdd8fb28	-0.10594779
2	0xbea133be	-0.3148479
3	0x3ea15bf0	0.31515455
4	0x3d757040	0.059921503
5	0xbddf836c	-0.109137386
6	0xbebbf50e	-0.367104
7	0x3e8a3da4	0.27000153
8	0x3e3f6f3e	0.1869478
9	0x3e6db44d	0.2321331
10	0xbcc2b338	-0.023767099
11	0xbbcfc555	-0.0063406625
12	0x3dd84ab8	0.105611265
13	0xbd706d21	-0.058697823
14	0x3d157634	0.03648968
15	0x39b1ca27	0.00033910686
16	0x3deede89	0.11663539
17	0x3f02e70c	0.511338
18	0x3e994849	0.29937962
19	0xbe34070e	-0.17580816
20	0xbb4e3a4d	-0.0031467855
21	0x3d29dc6d	0.04146998
22	0x3da6d62a	0.08146317
23	0x3e0befe8	0.13665736
24	0xbde8f920	-0.11375642
25	0x3db406ff	0.08790397
26	0x3d7e4d19	0.062085245
27	0xbe1282eb	-0.14307754
28	0xbe3f97c9	-0.18710245
29	0xbddd6f3f	-0.10812234
30	0xbe65f6e5	-0.22457464
31	0x3d455c45	0.0481837
32	0xbd724da9	-0.059156094
33	0xbe12df4e	-0.14342996
34	0xbda7b30b	-0.081884466
35	0xbb58dc6b	-0.0033090364
36	0xbdd44503	-0.103647254
37	0xbd4f36c0	-0.050589323
38	0xbe781231	-0.2422569
39	0xbd460538	-0.04834482
40	0xbe47a67f	-0.19497107
41	0x3d197c05	0.03747179
42	0x3da7446c	0.08167347
43	0xbd2a8607	-0.041631725
44	0x3d12c6ae	0.035834007
45	0x3df7ac82	0.1209345
46	0x3d210aeb	0.039317053
47	0x3cd11d70	0.025526732
48	0x3cc89d90	0.024489194
49	0x3d39a6b4	0.045324996
50	0x3d945396	0.07242505
51	0x3d7a82c9	0.061159883
52	0xbd85bfbe	-0.065307125
53	0x3d016e58	0.031599373
54	0x3d274fa6	0.040847443
55	0xbe063507	-0.13106166
56	0xbe3575a1	-0.17720653
57	0xbe6f1bce	-0.2335045
58	0xbe902a10	-0.2815709
59	0xbe17cecf	-0.14824985
60	0xbc27727e	-0.010220168
61	0x3e2e7af3	0.17039089
62	0xbe5dba1e	-0.2165303
63	0x3e08c89e	0.1335778
64	0x3e0083bb	0.12550251
65	0x3e3a65c4	0.18202883
66	0xbe50fc38	-0.20408714
67	0xbdcb142a	-0.09915955
68	0xbed40e2a	-0.41417056
69	0x3e93ccfd	0.2886733
70	0xbd1cc76b	-0.038276117
71	0xbde9b18e	-0.11410819
72	0xbda6c1db	-0.08142444
73	0x3e739224	0.23786217
74	0x3d11c8ab	0.035591763
75	0xbe908807	-0.2822878
76	0xbcbc3f20	-0.02297932
77	0x3e74822f	0.23877786
78	0x3ea1809f	0.31543443
79	0x3d800594	0.06251064
80	0xbe222d2a	-0.15837541
81	0x3ddee3fa	0.10883327
82	0xbe1de161	-0.15418006
83	0xbe95ec3d	-0.29281798
84	0xbe943256	-0.28944653
85	0xbe61ad68	-0.22038805
86	0xbe973e03	-0.295395
87	0x3e4d654e	0.20058176
88	0xbd30c065	-0.04315223
89	0xbcc4d01f	-0.024025021
90	0xbe1bace0	-0.15202665
91	0x3df08d0b	0.11745652
92	0x3e4689d4	0.19388515
93	0x3d904eaf	0.07046258
94	0xbc298b34	-0.01034813
95	0xbe579de0	-0.21056318
96	0xbe14455d	-0.14479585
97	0xbd237d51	-0.039914433
98	0xbb864db1	-0.004098617
99	0xbe11d129	-0.14239945
100	0xbe1b2075	-0.151491
101	0x3e1a1dde	0.15050456
102	0xbdefb898	-0.1170513
103	0xbdf06b6c	-0.11739239
104	0xbdc262f5	-0.09491531
105	0x3dde328b	0.10849484
106	0x3e107dee	0.14110538
107	0x3e4bd9e7	0.19907342
108	0xbe1df232	-0.15424421
109	0x3dd6f9b6	0.10496847
110	0x3de2318a	0.11044605
111	0xbe624765	-0.22097547

weight_hh_l0 f4 [16, 4]
0	0x3d9ebf0c	0.07751283
1	0xbdc8ecbd	-0.09810779
2	0xbdfa9b72	-0.1223668
3	0x3baf58b3	0.00535115
4	0xbd69ee17	-0.057111826
5	0x3d1c0389	0.03808931
6	0x3e1eae81	0.15496255
7	0x3c5d5384	0.013508681
8	0x3c2a4846	0.010393208
9	0x3cdc4459	0.02688806
10	0x3de1aa3f	0.110188
11	0xbc8abfbe	-0.016937133
12	0xbbd106ae	-0.00637897
13	0x3c89595d	0.016766245
14	0x3c6e7a8d	0.014555586
15	0x3d1e0abf	0.038584467
16	0x3d8d78c1	0.069077976
17	0xbbaf605f	-0.0053520645
18	0x3d385495	0.04500254
19	0xbb4d8750	-0.003136117
20	0xbc8afbc0	-0.016965747
21	0x3d2eaa92	0.042643137
22	0x3c995d05	0.018721113
23	0x3b72bcef	0.0037038883
24	0x3d141b37	0.036158767
25	0x3c8282b9	0.015931474
26	0x3d88dd00	0.066827774
27	0xbc22d045	-0.009937351
28	0x391dbbd0	0.00015042652
29	0x3a9605c2	0.0011445808
30	0xbb96252c	-0.004582068
31	0x3c8662a4	0.016404457
32	0x3dfde309	0.12396819
33	0x3c4d809c	0.01254287
34	0xbd16045d	-0.036625255
35	0xbd0fe8a4	-0.035133973
36	0xbdbe09ab	-0.09279188
37	0x3d8ad577	0.067789964
38	0xbda4fa1c	-0.08055517
39	0xbdb7d7a0	-0.08976674
40	0xbc609669	-0.013707736
41	0x3d212ed5	0.039351303
42	0x3e0211ea	0.12702146
43	0x3d44ff88	0.048095256
44	0x3bfe0b93	0.0077528446
45	0xbd8e3aa8	-0.069447815
46	0xbd5f133d	-0.054461706
47	0xbd43e4f8	-0.047825783
48	0x3e070dfe	0.13188931
49	0xbceae8f0	-0.028675526
50	0x3d2606c7	0.040533807
51	0xbbd29258	-0.006426137
52	0xbd4eae15	-0.050458986
53	0x3e4ef68c	0.20211238
54	0x3de4afb2	0.11166324
55	0x3d489678	0.048971623
56	0x3d0bce15	0.034132082
57	0x3da500d5	0.08056799
58	0x3e059f4b	0.13049047
59	0x3ccb6049	0.024826186
60	0xbbd1ce26	-0.0064027486
61	0x3cb7b095	0.022423068
62	0x3c4ef2c6	0.012631124
63	0x3d628ed6	0.055312

bias_ih_l0 f4 [16]
0	0xbe0d3f4a	-0.13793674
1	0x3e30e6e5	0.1727558
2	0x3eb866f7	0.36016056
3	0x3d2d528e	0.04231506
4	0x3dbeb268	0.09311372
5	0x3d6da0ce	0.058014683
6	0x3e30bdd9	0.17259921
7	0x3a8f763d	0.0010945272
8	0xbdebcbe4	-0.115134984
9	0x3ec89d9a	0.3918274
10	0x3efe0912	0.49616295
11	0xbd61da68	-0.05513993
12	0x3d9a31e3	0.075290464
13	0x3eafb8c9	0.34320667
14	0x3ec9fb5b	0.39449582
15	0x3d871217	0.06595247

bias_hh_l0 f4 [16]
0	0xbe0d3f4a	-0.13793674
1	0x3e30e6e8	0.17275584
2	0x3eb866f7	0.36016056
3	0x3d2d528c	0.04231505
4	0x3dbeb268	0.09311372
5	0x3d6da0ce	0.058014683
6	0x3e30bdd8	0.1725992
7	0x3a8f7639	0.0010945267
8	0xbdebcbf0	-0.11513507
9	0x3ec89d9b	0.39182743
10	0x3efe0912	0.49616295
11	0xbd61da65	-0.055139918
12	0x3d9a31e0	0.07529044
13	0x3eafb8c9	0.34320667
14	0x3ec9fb5e	0.3944959
15	0x3d871217	0.06595247

weight_ih_l0_reverse f4 [16, 7]
0	0x3e314c9a	0.17314377
1	0xbd935a7e	-0.071949944
2	0xbe601655	-0.21883519
3	0xbe218a8a	-0.15775505
4	0xbdc66f5d	-0.096892096
5	0xbe5ccfd6	-0.21563658
6	0x3da5abe5	0.08089427
7	0x3e35b702	0.17745593
8	0x3e3350eb	0.17511337
9	0x3e0a6cb1	0.13518025
10	0x3dc74b5f	0.09731173
11	0x3db75560	0.08951831
12	0x3ce2c22f	0.027680485
13	0xbe93c158	-0.28858447
14	0xbe0a2a31	-0.13492657
15	0x3cbda144	0.023148187
16	0xbde20f54	-0.1103808
17	0x3c46ee5e	0.012141792
18	0xbae71af9	-0.001763194
19	0x3d162208	0.03665355
20	0xbe26009c	-0.1621117
21	0x3d45a3c9	0.0482519
22	0x3e125925	0.14291818
23	0x3cee6d32	0.029104803
24	0x3dadc449	0.08484704
25	0x3c11a16c	0.008888584
26	0x3e91363e	0.28361696
27	0xbdbf027a	-0.09326644
28	0x3d5986de	0.053107135
29	0xbd162029	-0.036651764
30	0x3e0cf186	0.13764009
31	0xbd70fb51	-0.058833424
32	0xbcf03575	-0.029322365
33	0xbe0ee93c	-0.1395616
34	0x3d0cb1b7	0.03434917
35	0x3dc9faa5	0.0986226
36	0x3da28708	0.079359114
37	0x3df10d39	0.117701
38	0xbb6cfbe1	-0.0036160874
39	0x3d139b0c	0.036036536
40	0x3dc4b774	0.096053034
41	0xbdc2c810	-0.09510815
42	0xbd6c154e	-0.057637505
43	0xbc6bf541	-0.014401735
44	0xbd7aeb40	-0.061259508
45	0xbd1801f0	-0.037111223
46	0xbd9e6502	-0.077341095
47	0xbd916303	-0.07098963
48	0x3cc70be5	0.024297664
49	0x3b5fa44e	0.0034125033
50	0x3d11ca26	0.035593174
51	0x3c97f9a3	0.018551653
52	0x3d867e7c	0.06567094
53	0x3d64bc5c	0.055843696
54	0x3d7c3d04	0.061581627
55	0xbcd63aa1	-0.026151003
56	0xbe3fb49a	-0.18721238
57	0xbe01ed37	-0.12688147
58	0x3da94798	0.082656085
59	0xbe881c62	-0.26584154
60	0xbdbc0610	-0.09180844
61	0xbd0d02b4	-0.034426406
62	0x3ea18a70	0.31550932
63	0xbc467b15	-0.012114306
64	0x3cee8f38	0.029121026
65	0x3e900a30	0.28132772
66	0x3dbea3de	0.09308599
67	0x3e239df7	0.15978228
68	0x3e897c4d	0.26852646
69	0x3d2eaf95	0.042647917
70	0xbea65d70	-0.32493162
71	0x3c33acce	0.010966493
72	0xbd565ff3	-0.052337598
73	0x3e326192	0.17420033
74	0xbe88fd8e	-0.26755947
75	0x3dd22546	0.102610156
76	0xbde295a8	-0.11063701
77	0x3b166e2d	0.0022953853
78	0x3b451509	0.0030072352
79	0xbdcb46dd	-0.099256255
80	0xbe610d5a	-0.2197775
81	0xbe3df1bb	-0.18549244
82	0xbde9de72	-0.11419381
83	0x3e3c8c60	0.18412924
84	0xbd33dae3	-0.04390992
85	0x3bc53738	0.0060185455
86	0xbd0a6d98	-0.033795923
87	0x3e5089a4	0.20365006
88	0xbe58c868	-0.21170199
89	0xbedcfc93	-0.4316145
90	0x3ec9dbfe	0.39425653
91	0x3e0df4c7	0.13862906
92	0x3e5322eb	0.20618789
93	0x3e08aa58	0.13346231
94	0x3d640f38	0.055678576
95	0x3d878b63	0.06618383
96	0x3e2c7705	0.16842277
97	0xbea4e0df	-0.32202813
98	0xbe1661a5	-0.14685686
99	0xbd4d4b09	-0.050120387
100	0xbe191eb0	-0.14953113
101	0x3cd1c5f0	0.02560708
102	0xbda80ab8	-0.082051694
103	0xbdb4df91	-0.088317044
104	0xbdd83207	-0.10556417
105	0x3d1d4c37	0.038402762
106	0x3d9b8f22	0.0759566
107	0x3de5e9b1	0.11226214
108	0xbdda9737	-0.10673373
109	0xbe07e1e1	-0.1326976
110	0x3c7de415	0.0154962735
111	0x3e7f5107	0.24933253

weight_hh_l0_reverse f4 [16, 4]
0	0xbda16b56	-0.07881801
1	0x3c32bfb8	0.010909967
2	0xba87361e	-0.0010315811
3	0xbd1d0fed	-0.038345266
4	0xbd1c7d2c	-0.03820531
5	0x3cbe5d9b	0.023237994
6	0xbb1f6541	-0.0024321827
7	0xbcd7591a	-0.026287604
8	0xbabf80d5	-0.0014610538
9	0x3b72f611	0.0037072937
10	0x3c3791c6	0.011204189
11	0xbbedd71d	-0.0072583095
12	0x3ccff984	0.025387533
13	0x3b1f7cfa	0.0024335966
14	0xbc6011db	-0.013676132
15	0x3c62a35c	0.013832893
16	0xbd946fbf	-0.072478764
17	0x3c3535e5	0.011060213
18	0xbcd102a3	-0.025513953
19	0xbd05b189	-0.032640014
20	0xbcdb0bb2	-0.026738975
21	0x3ce60796	0.02807979
22	0xbc77f3de	-0.015133826
23	0xbca73395	-0.020410338
24	0xbc5739e7	-0.013136364
25	0x3b0d248a	0.0021536672
26	0x3a8cfe44	0.0010756929
27	0xbbdc2652	-0.0067184353
28	0x3c1cea24	0.009577308
29	0x3b0edd78	0.0021799486
30	0xba5bfe5d	-0.000839209
31	0x3b1f9ad2	0.0024353755
32	0xbd265d43	-0.040616285
33	0x3bcb0174	0.0061952416
34	0xbd04b10f	-0.03239542
35	0xbc853463	-0.016260331
36	0x3d8adc9d	0.0678036
37	0xbcb75e13	-0.022383725
38	0x3ccaf974	0.024777152
39	0x3ca34286	0.019929182
40	0xbd3e60a7	-0.046478894
41	0x3cd1dc3e	0.025617715
42	0xbcce9680	-0.025218248
43	0xbd062ee8	-0.032759577
44	0x3dc75540	0.09733057
45	0xbb8c8b30	-0.0042890534
46	0xbc527036	-0.012844136
47	0x3c94fddb	0.018187454
48	0xbe3c59b3	-0.18393593
49	0x3cb87cae	0.02252039
50	0xbd2be4f6	-0.0419664
51	0xbd9a2fca	-0.07528646
52	0xbc9f0ee4	-0.01941628
53	0x3d5bd446	0.053669237
54	0x397a24a2	0.00023855505
55	0xbd15eb70	-0.036601484
56	0xbcc081b3	-0.023499345
57	0x3bce1e1e	0.0062902113
58	0x3c3948b3	0.011308837
59	0xbc80b532	-0.0157114
60	0x3d139be8	0.036037356
61	0x3b4dd3bf	0.0031406728
62	0xbbc52aae	-0.0060170507
63	0x3c5b981e	0.013402967

bias_ih_l0_reverse f4 [16]
0	0xbdcafe64	-0.099118024
1	0xbdd33727	-0.10313254
2	0xbcbaf9b2	-0.022824142
3	0x3df3df8e	0.11907874
4	0xbdebd1fe	-0.11514662
5	0xbd3d8420	-0.046268582
6	0xbc053173	-0.008129465
7	0x3d00140a	0.03126911
8	0x3ecf9263	0.40541372
9	0x3de0ef6d	0.10983167
10	0x3dc47411	0.095924504
11	0x3cb2f188	0.021843687
12	0xbd316e17	-0.04331788
13	0xbd504326	-0.050845288
14	0xbcbd528a	-0.023110647
15	0x3cc6c488	0.024263635

bias_hh_l0_reverse f4 [16]
0	0xbdcafe5a	-0.09911795
1	0xbdd33727	-0.10313254
2	0xbcbaf9b4	-0.022824146
3	0x3df3df8f	0.11907875
4	0xbdebd201	-0.115146644
5	0xbd3d841e	-0.046268575
6	0xbc053173	-0.008129465
7	0x3d001409	0.031269107
8	0x3ecf9266	0.4054138
9	0x3de0ef6a	0.109831646
10	0x3dc47410	0.0959245
11	0x3cb2f19d	0.021843726
12	0xbd316e18	-0.043317884
13	0xbd504325	-0.050845284
14	0xbcbd528f	-0.023110656
15	0x3cc6c495	0.02426366

weight_ih_l0 f4 [16, 8]
0	0x3e8e9705	0.27849594
1	0xbd6b8a93	-0.0575052
2	0x3da1eab2	0.07906093
3	0x3e099d07	0.13438807
4	0x3dc4583b	0.09587141
5	0x3d95e88d	0.07319746
6	0x3e070951	0.13187148
7	0x3d80fc29	0.06298096
8	0x3d460f53	0.048354458
9	0xbcff93d2	-0.031198416
10	0x3d88d406	0.06681065
11	0x3e04a921	0.12955143
12	0x3d5bb601	0.05364037
13	0x3e16d3e8	0.14729273
14	0x3d947785	0.07249359
15	0x3cc439a2	0.023953263
16	0x3e7b020d	0.24512501
17	0xbea01948	-0.31269288
18	0x3e73d2e4	0.23810917
19	0x3e01e224	0.12683922
20	0x3da3035c	0.07959625
21	0x3e23f165	0.16010053
22	0x3e8cb8a6	0.27484626
23	0x3de9ade1	0.11410118
24	0xbe741ab5	-0.23838313
25	0x3edcecca	0.43149406
26	0xbe9c76ba	-0.3055933
27	0xbdf8c671	-0.12147225
28	0x3ece586c	0.40301836
29	0xbdcc3ec9	-0.09972913
30	0xbdbc7eb4	-0.09203854
31	0xbb841d2b	-0.0040317974
32	0x3e3a88c4	0.18216234
33	0x3dc7c74f	0.09754812
34	0x3dc1fa47	0.09471565
35	0x3daf6d8f	0.085658185
36	0x3dba4c45	0.090965785
37	0x3d50f334	0.051013187
38	0x3d95e257	0.073185615
39	0x3cb2f24a	0.021844048
40	0x3dabaae7	0.083822064
41	0xbd4cdc7f	-0.05001497
42	0x3c7c7b42	0.015410246
43	0x3de3a109	0.111146994
44	0x3c84daf1	0.01621768
45	0x3dc3de28	0.09563857
46	0x3d873158	0.066012084
47	0x3cb09e9b	0.021560004
48	0x3e5b5c55	0.2142194
49	0xbd78a725	-0.060706276
50	0x3d3b9e06	0.045805
51	0x3de6ec37	0.11275523
52	0x3d9b6abc	0.07588717
53	0x3df8fc62	0.12157513
54	0x3de91dce	0.11382638
55	0x3c8e7fed	0.017394984
56	0xbdb1cd5c	-0.08681747
57	0x3e40794a	0.18796268
58	0x3e3b2fd6	0.18279967
59	0xbd6cecec	-0.057843134
60	0x3e32088b	0.17386071
61	0xbd394b5d	-0.045237888
62	0x3ac1e50c	0.0014792993
63	0x3cff83b9	0.03119074
64	0x3effc7d5	0.49957147
65	0xbf58bef8	-0.84666395
66	0x3ea53ea7	0.32274362
67	0xbec18d36	-0.37803048
68	0x3ea8ab3c	0.3294314
69	0xbf0a465b	-0.54013604
70	0x3e8793d8	0.26479983
71	0xbee92f73	-0.45544013
72	0xbf3477ca	-0.70495284
73	0x3e5a3054	0.21307498
74	0x3f1a2be7	0.6022324
75	0x3dab72f2	0.083715335
76	0xbe641e7f	-0.22277258
77	0x3e8de67e	0.27714914
78	0xbdbe22f6	-0.09284012
79	0x3dc785d2	0.09742321
80	0xbed9c3fe	-0.42532343
81	0x3c9aff90	0.01892069
82	0xbf446771	-0.7672034
83	0x3e94ce77	0.2906377
84	0x3f238be5	0.6388534
85	0xbf014141	-0.50490195
86	0x3da693a5	0.0813363
87	0xbe85fe00	-0.2617035
88	0xbccde96e	-0.025135722
89	0xbf07b5c4	-0.5301173
90	0xbe63a5b5	-0.22231181
91	0x3ea98775	0.33111158
92	0xbf143216	-0.57888925
93	0xbd1a46c2	-0.037665136
94	0x3e234864	0.15945584
95	0xbdd44ad1	-0.103658326
96	0x3ee466b3	0.44609603
97	0x3d831385	0.064002074
98	0x3e3c7f34	0.18407899
99	0x3e46ebdb	0.19425909
100	0xbc289f2f	-0.010291859
101	0x3df9a43a	0.12189527
102	0x3e26164c	0.16219443
103	0xbc2f8c4a	-0.0107146
104	0x3d6aae19	0.05729494
105	0xbe073afe	-0.13206097
106	0x3df10fd5	0.11770598
107	0x3e9a129c	0.30092323
108	0x3e5d1eef	0.21593831
109	0x3e1719fd	0.14756007
110	0x3c253a61	0.010084719
111	0xbc07a8bb	-0.008279975
112	0x3ec95284	0.39320767
113	0x3e8a4050	0.27002192
114	0x3eaf9806	0.34295672
115	0x3e5234fa	0.20528021
116	0x3da41572	0.08011903
117	0x3e5cd5a5	0.21565874
118	0x3e318373	0.173353
119	0x3d422299	0.047396276
120	0x3cfb585a	0.030681778
121	0x3f23e13d	0.6401556
122	0x3f09f3d3	0.5388767
123	0xbe235f02	-0.15954211
124	0x3e55fae5	0.2089649
125	0xbdd6e854	-0.10493532
126	0x3d5db763	0.05412997
127	0x3e41a0e5	0.18909033

weight_hh_l0 f4 [16, 4]
0	0x3dfcc8ee	0.12343012
1	0xbe4805f8	-0.19533527
2	0x3d08b444	0.03337504
3	0xbdf8de88	-0.121518195
4	0xbd15a8c7	-0.03653791
5	0xbd78fb01	-0.06078625
6	0xbe11ebbe	-0.14250085
7	0xbea6113f	-0.32435033
8	0x3e2366c2	0.15957168
9	0x3e65929e	0.22419211
10	0xbe1730a3	-0.14764647
11	0xbcf827b2	-0.030292366
12	0x3c0a4c2d	0.008441013
13	0x3dd552d6	0.1041619
14	0xbcbd8b5b	-0.023137739
15	0xbdecc4af	-0.11560952
16	0x3dc28ded	0.094997264
17	0x3d29b189	0.041429076
18	0xbb447841	-0.0029978903
19	0xbe12248a	-0.14271751
20	0xbba49b54	-0.0050233994
21	0x3d4e5e22	0.05038274
22	0xbd386c9f	-0.045025464
23	0x3e08d872	0.13363817
24	0x3dbe95fe	0.093059525
25	0x3cee9a7f	0.029126404
26	0xbce777d9	-0.02825539
27	0xbe1c9152	-0.1528981
28	0xbce7eb43	-0.028310424
29	0x3dad58e5	0.08464221
30	0x3d680af6	0.05665108
31	0xbea2a3f5	-0.31765714
32	0xbd415bae	-0.047206573
33	0x3e89eaa4	0.2693683
34	0x3e6d3eb8	0.23168457
35	0xbf76aae4	-0.9635451
36	0xbf0618b9	-0.52381474
37	0xbe8d313f	-0.27576634
38	0xbf0196e3	-0.5062086
39	0xbec3912c	-0.38196695
40	0x3e8efdf6	0.27928132
41	0xbe6403e6	-0.22267112
42	0x3f044177	0.5166239
43	0x3f2f7cfc	0.68550086
44	0x3e10629e	0.1410012
45	0xbebcc1f2	-0.3686672
46	0x3c6ee49c	0.014580872
47	0x3e9ae9b2	0.3025642
48	0x3ed15ed6	0.40892667
49	0xbe813d73	-0.25242195
50	0xbc8b264e	-0.016986039
51	0x3c977185	0.018486748
52	0xbe49cf05	-0.19707878
53	0x3e7abcf1	0.24486138
54	0x3deb51ec	0.11490235
55	0xbef13788	-0.4711268
56	0x3e762ea9	0.24041237
57	0x3eb39a0b	0.35078463
58	0xbe363259	-0.17792644
59	0x3e9f509d	0.3111619
60	0x3e21089b	0.15725939
61	0x3f0eeef9	0.55833393
62	0xbcc8f109	-0.024528997
63	0x3e7f7125	0.24945505

bias_ih_l0 f4 [16]
0	0x3e37f1b5	0.17963298
1	0x3e8ad482	0.27115256
2	0x3e67e352	0.2264531
3	0x3e3843c1	0.17994596
4	0x3eccc69f	0.39995286
5	0x3e91c011	0.28466848
6	0x3e7c74cf	0.24653934
7	0x3e39a29f	0.18128441
8	0x3cbf14af	0.023325292
9	0x3e5790c4	0.21051317
10	0x3b4a50e7	0.0030870975
11	0xbdbb8e91	-0.09158052
12	0x3eb96bc2	0.36215025
13	0x3e9b7e64	0.30369866
14	0x3eb25dbf	0.34837148
15	0x3e9a0e00	0.30088806

bias_hh_l0 f4 [16]
0	0x3e37f1b8	0.17963302
1	0x3e8ad482	0.27115256
2	0x3e67e354	0.22645313
3	0x3e3843c7	0.17994605
4	0x3eccc69e	0.39995283
5	0x3e91c013	0.28466853
6	0x3e7c74cb	0.24653928
7	0x3e39a29f	0.18128441
8	0x3cbf14b3	0.0233253
9	0x3e5790c6	0.2105132
10	0x3b4a5112	0.0030871076
11	0xbdbb8e90	-0.09158051
12	0x3eb96bc1	0.36215022
13	0x3e9b7e66	0.30369872
14	0x3eb25dbf	0.34837148
15	0x3e9a0e00	0.30088806

weight f4 [4, 4]
0	0xbf9217ee	-1.1413553
1	0xbf293149	-0.6609083
2	0xbe861e4a	-0.26194984
3	0xbeba4676	-0.36381882
4	0x3f90ce1f	1.1312903
5	0x3f13e228	0.5776696
6	0x3f49db92	0.7885066
7	0x3f5544ee	0.83308303
8	0xbf6a3627	-0.9148888
9	0xbe114170	-0.14185119
10	0x3e372298	0.1788429
11	0x3ea31898	0.318547
12	0x3f213ad2	0.6298038
13	0xbef983e2	-0.4873343
14	0xbebd1540	-0.36930275
15	0x3f832c79	1.0247947

bias f4 [4]
0	0x3c23d70a	0.01
1	0x3c23d70a	0.01
2	0x3c23d70a	0.01
3	0x3c23d70a	0.01

in_proj_weight f4 [12, 4]
0	0x3ebb4b2a	0.36580783
1	0x3e1c57f8	0.15267932
2	0x3f56ca02	0.8390199
3	0x3f56ad08	0.83857775
4	0x3eafba14	0.34321654
5	0x3eccd20a	0.40003997
6	0x3e063498	0.13106
7	0x3da8dd30	0.08245313
8	0x3f302264	0.68802476
9	0x3e92a382	0.28640372
10	0x3f65e675	0.89804775
11	0x3dcc11d8	0.09964341
12	0x3edc9d48	0.43088746
13	0x3f02c385	0.5107959
14	0x3f41c905	0.75697356
15	0x3f679826	0.90466535
16	0x3f56aea3	0.83860224
17	0x3f385858	0.720098
18	0x3e8a7f62	0.2705031
19	0x3e125b3c	0.14292616
20	0x3d57d540	0.052693605
21	0x3f065972	0.5248023
22	0x3f7c2509	0.9849401
23	0x3ecf5fee	0.40502876
24	0x3ef53908	0.47895074
25	0x3e0beec4	0.136653
26	0x3f274c18	0.65350485
27	0x3f51265e	0.8169917
28	0x3be6c100	0.0070420504
29	0x3e177d4c	0.1479389
30	0x3f5ecf83	0.8703539
31	0x3f1e4e4d	0.6183823
32	0x3ef00a16	0.46882695
33	0x3f16e18d	0.58937913
34	0x3ed913c8	0.42397904
35	0x3e1a2144	0.15051752
36	0x3d0649a0	0.032785058
37	0x3f542fc6	0.82885396
38	0x3ee18d5e	0.44053167
39	0x3ea0ecc4	0.31430638
40	0x3ebdec2a	0.3709424
41	0x3e68be50	0.22728848
42	0x3eb42d54	0.35190833
43	0x3d90fbd0	0.070792794
44	0x3f5fc9b9	0.8741718
45	0x3f344491	0.70417124
46	0x3e7dc994	0.24783927
47	0x3ea89fb2	0.32934338

in_proj_bias f4 [12]
0	0x00000000	0.0
1	0x00000000	0.0
2	0x00000000	0.0
3	0x00000000	0.0
4	0x00000000	0.0
5	0x00000000	0.0
6	0x00000000	0.0
7	0x00000000	0.0
8	0x00000000	0.0
9	0x00000000	0.0
10	0x00000000	0.0
11	0x00000000	0.0

weight f4 [4, 4]
0	0x3f396cf4	0.72431874
1	0x3ea133aa	0.3148473
2	0x3f21c0b7	0.63184685
3	0x3f233e64	0.63767076
4	0x3e3db310	0.18525338
5	0x3f20106f	0.62525076
6	0x3f07d4e2	0.5305921
7	0x3f6fcb0b	0.93669194
8	0x3ea35fc4	0.31909
9	0x3ebe30c2	0.37146574
10	0x3f6e48ee	0.9308003
11	0x3dbbcc98	0.091698825
12	0x3f093f70	0.5361242
13	0x3f7b540b	0.98175114
14	0x3e8d37c2	0.27581602
15	0x3f7ab619	0.9793411

bias f4 [4]
0	0x00000000	0.0
1	0x00000000	0.0
2	0x00000000	0.0
3	0x00000000	0.0

weight_ih_l0 f4 [16, 4]
0	0xbf18c093	-0.59668845
1	0x3e2617e5	0.16220053
2	0xbdc306d6	-0.09522788
3	0xbe939427	-0.2882397
4	0xbc2c1de3	-0.010505172
5	0x3e6b010f	0.22949623
6	0xbea2905b	-0.3175076
7	0xbeca063a	-0.39457875
8	0x3d9323a4	0.07184532
9	0x3ec45991	0.38349584
10	0xbe89b53d	-0.26896086
11	0xbedbab81	-0.42904285
12	0xbe6caa0d	-0.23111744
13	0x3f0ae825	0.54260474
14	0xbea49267	-0.32142946
15	0x3d5de13a	0.05416987
16	0x3e300a9d	0.17191549
17	0x3e8be70a	0.27324706
18	0xbe9edc85	-0.31027618
19	0xbe9b21d4	-0.30299246
20	0x3e266e29	0.1625296
21	0x3c81d714	0.015849628
22	0x3d86850b	0.06568345
23	0xbe3d075f	-0.18459843
24	0x3dd93a4f	0.106068246
25	0xbd2f542e	-0.04280489
26	0x3d755def	0.059904035
27	0xbd8950bf	-0.06704854
28	0x3d0d94fc	0.03456591
29	0x3ea209de	0.31648153
30	0xbe665408	-0.22492993
31	0xbec80d24	-0.39072526
32	0x3f9625e7	1.1730317
33	0xbefb0c97	-0.49033043
34	0xbf34a5f0	-0.705657
35	0x3e99f6d5	0.3007113
36	0xbedfe7f3	-0.4373165
37	0x3f0dc56f	0.55379385
38	0xbf2354f7	-0.6380152
39	0xbebcdf8e	-0.3688931
40	0xbd809ac9	-0.06279523
41	0xbeb072da	-0.34462625
42	0x3e758e7d	0.23980136
43	0x3ec427d5	0.3831164
44	0x3f071b2a	0.52775824
45	0xbf8d74ed	-1.1051308
46	0x3f83274a	1.0246365
47	0xbfaff1b5	-1.3745638
48	0x3eb07155	0.34461465
49	0x3e91f41a	0.28506547
50	0xbf11b3ad	-0.5691479
51	0xbef0d1ec	-0.47035158
52	0xbbcb85b5	-0.0062110075
53	0x3f4a5c4a	0.7904707
54	0xbf2bdbf1	-0.6713248
55	0xbde29f02	-0.110654846
56	0x3e28f82c	0.1650092
57	0x3ecffa55	0.40620676
58	0xbe8617e0	-0.2619009
59	0xbf0e561a	-0.5560013
60	0x3e6e6b68	0.2328316
61	0x3e9c359d	0.30509654
62	0xbe4a96db	-0.1978411
63	0xbf0f1bb3	-0.5590164

weight_hh_l0 f4 [16, 4]
0	0x3f4a188f	0.78943723
1	0xbf99fadf	-1.2029685
2	0x3fb2ce6d	1.3969246
3	0x3d1dde5c	0.038542137
4	0xbd9db516	-0.07700555
5	0x3df28748	0.11842209
6	0x3b1cf64e	0.002395052
7	0xbe4fc8a7	-0.20291387
8	0xbbd26c31	-0.006421589
9	0xbb1f4b24	-0.0024306262
10	0x3bf57869	0.0074911606
11	0xbcb016c5	-0.021495232
12	0xbe6e5ec1	-0.23278333
13	0xbf79746d	-0.97443277
14	0x3fc70570	1.5548534
15	0x3f964c96	1.1742122
16	0x3dd4876b	0.103773914
17	0x3e906e79	0.28209284
18	0xbecaf967	-0.39643404
19	0x3c9b3999	0.018948363
20	0xbdb6cbb3	-0.08925571
21	0x3d10a933	0.03531761
22	0xbce3859f	-0.027773676
23	0xbe8ffda8	-0.28123212
24	0xbc5c76d7	-0.013456068
25	0xba937a24	-0.0011251611
26	0x3c47b858	0.012189947
27	0xbd425e30	-0.047453105
28	0x3da8e472	0.082466975
29	0x3eb7fd90	0.3593564
30	0xbee49a0d	-0.4464878
31	0xbd3904a6	-0.04517045
32	0x3fa7d84c	1.3112884
33	0x3f45fa8f	0.7733545
34	0xbf606ff7	-0.87670845
35	0xbe215af1	-0.15757348
36	0xbe97e105	-0.29663864
37	0x3ce0d1a3	0.027443713
38	0x3bb279d9	0.0054466543
39	0xbf127a4c	-0.5721786
40	0x3bb778a5	0.0055990987
41	0x3b9aa323	0.0047191544
42	0xbc231658	-0.009954058
43	0x3ca0cf29	0.019630032
44	0x3ead8cba	0.33896428
45	0x3f62e208	0.88626146
46	0xbfe471e5	-1.7847258
47	0x3f3af1f1	0.73025423
48	0x3ea95d84	0.3307916
49	0x3daf39d8	0.08555955
50	0xbdb8334c	-0.08994159
51	0x3d5d3dda	0.054014064
52	0xbcc60d2c	-0.024176203
53	0x3d2dcc03	0.04243089
54	0xbeb95a36	-0.36201638
55	0xbeaec8b7	-0.34137508
56	0xbc8e4fda	-0.01737206
57	0xbc42ff90	-0.011901751
58	0x3ce2b554	0.027674355
59	0xbd6ae540	-0.057347536
60	0x3defa79b	0.1170189
61	0x3e10f0e4	0.14154392
62	0xbe9f3caf	-0.31100985
63	0x3e479a4c	0.19492453

bias_ih_l0 f4 [16]
0	0x3ee83daa	0.45359546
1	0x3ef0bc33	0.47018585
2	0x3f4618b9	0.77381474
3	0x3e93e723	0.2888728
4	0x3f29de1d	0.6635454
5	0x3df92982	0.1216612
6	0xbcb50e23	-0.022101467
7	0x3f35a626	0.7095665
8	0x3d2fd887	0.042931106
9	0x3e8b958a	0.27262527
10	0xbf2ea851	-0.6822558
11	0x3da025a7	0.078196816
12	0x3f60b34e	0.877736
13	0x3f0315c6	0.512051
14	0x3f641130	0.89088726
15	0x3f5da3b7	0.86577934

bias_hh_l0 f4 [16]
0	0x3ee83dab	0.4535955
1	0x3ef0bc32	0.47018582
2	0x3f4618b9	0.77381474
3	0x3e93e724	0.28887284
4	0x3f29de1e	0.6635455
5	0x3df92982	0.1216612
6	0xbcb50e23	-0.022101467
7	0x3f35a626	0.7095665
8	0x3d2fd889	0.042931113
9	0x3e8b958a	0.27262527
10	0xbf2ea851	-0.6822558
11	0x3da025a3	0.07819679
12	0x3f60b34c	0.87773585
13	0x3f0315c7	0.51205105
14	0x3f641130	0.89088726
15	0x3f5da3b7	0.86577934

weight_ih_l0 f4 [16, 4]
0	0x3deff69a	0.117169574
1	0x3e2a57c7	0.16635047
2	0x8025924f	-3.450399e-39
3	0x3e3b0864	0.1826492
4	0x3e2b606c	0.16736001
5	0x3e97a949	0.29621342
6	0x0035d17d	4.942432e-39
7	0x3e58e443	0.21180825
8	0x3e93d96e	0.28876823
9	0x3e9ff6ee	0.3124308
10	0x800d7e7f	-1.23924e-39
11	0x3dd0cb24	0.10194996
12	0x3d5fcabc	0.054636702
13	0x3e58d179	0.21173657
14	0x80388ae5	-5.192614e-39
15	0x3e362898	0.17788923
16	0x3bb5d968	0.0055495985
17	0x3d233834	0.03984852
18	0x8017680a	-2.149539e-39
19	0xbc4cdf8a	-0.012504468
20	0xbd7d9aea	-0.061915316
21	0x3dae7604	0.085186034
22	0x0018ef90	2.289991e-39
23	0x3d5e5924	0.05428423
24	0x3e5dd6f3	0.21664028
25	0x3e37f954	0.17966205
26	0x00131742	1.753218e-39
27	0x3d855cb1	0.0651182
28	0x3d5578f9	0.05211732
29	0x3baeb7bc	0.0053319614
30	0x800e67bd	-1.322911e-39
31	0xbcb6e7ca	-0.022327323
32	0x3bd371cc	0.0064527746
33	0xbf441ce5	-0.7660659
34	0x80066944	-5.88775e-40
35	0x3fdb8a64	1.7151608
36	0x3f4321b8	0.76223326
37	0xbf196ab1	-0.59928423
38	0x00199d6c	2.35236e-39
39	0xbe8a8159	-0.2705181
40	0x3fb112fc	1.3833919
41	0xbe9a2cf7	-0.3011243
42	0x801ca45c	-2.630355e-39
43	0x3e2e0909	0.16995634
44	0xbf121ef5	-0.57078487
45	0xbe7e8a7c	-0.24857515
46	0x001ced82	2.656596e-39
47	0xbe1dee33	-0.15422897
48	0x3e7509fa	0.23929587
49	0x3ebcfd23	0.36911878
50	0x00177cb7	2.156956e-39
51	0x3e8d941a	0.27652055
52	0x3e3b7d21	0.18309452
53	0x3ead0327	0.33791468
54	0x80036b9f	-3.14114e-40
55	0x3e8175a1	0.25285056
56	0x3f0cb0df	0.54957384
57	0x3e828a8d	0.2549633
58	0x801205f9	-1.655182e-39
59	0x3e62131c	0.22077602
60	0x3d96e7cd	0.07368431
61	0x3e71713e	0.23578355
62	0x80268e8f	-3.540889e-39
63	0x3e2ca00d	0.1685793

weight_hh_l0 f4 [16, 4]
0	0xbdfd02e0	-0.12354064
1	0xbd0d096c	-0.034432814
2	0xbdf2509d	-0.11831782
3	0xbcd17bad	-0.025571669
4	0xbe02f979	-0.12790479
5	0xbda640c3	-0.08117821
6	0xbe0ca394	-0.13734275
7	0xbde3aa99	-0.11116523
8	0xbdb7ab39	-0.08968205
9	0x3cc59a5f	0.024121461
10	0xbc8bb009	-0.017051714
11	0x3b62eb12	0.0034624976
12	0xbd9637a6	-0.07334833
13	0xbdb1cb7a	-0.08681388
14	0xbe0c7a36	-0.13718495
15	0xbd41d69a	-0.0473238
16	0xbddf95d5	-0.1091725
17	0xbc6f78c6	-0.014616197
18	0xbdc4b435	-0.09604684
19	0x3bf8f328	0.007597346
20	0x3b127456	0.0022347174
21	0xbd739213	-0.05946548
22	0xbd3e7dd7	-0.04650673
23	0xbc7d4955	-0.015459378
24	0xbe3c6f92	-0.18401936
25	0xbb9949a8	-0.00467797
26	0xbd9c3c3d	-0.07628677
27	0xbd3a00a8	-0.045410782
28	0x3d3bcf9a	0.04585228
29	0xbbda8b39	-0.0066694287
30	0x3b3f30ac	0.0029173298
31	0xbc8a9d28	-0.016920641
32	0x3ebd1732	0.3693176
33	0x3e874f18	0.2642753
34	0xbd7bb509	-0.061451945
35	0x3ebcdea5	0.36888614
36	0xbfa6a505	-1.301911
37	0x3e1e0dc2	0.15434936
38	0x3ebaffc6	0.36523265
39	0xbe8fbde9	-0.28074577
40	0x3ed22a77	0.41048023
41	0x3e894514	0.26810515
42	0x3f8a1c58	1.07899
43	0x3ec3a62f	0.38212726
44	0xbf5e6103	-0.8686678
45	0xbe821b87	-0.25411627
46	0xbf20dec4	-0.62839913
47	0xbdc9d6c6	-0.09855418
48	0xbe803e42	-0.250475
49	0xbdac6993	-0.08418574
50	0xbe67d243	-0.22638802
51	0xbdb2fa08	-0.08739096
52	0xbdefdaf7	-0.11711686
53	0xbdf9d474	-0.12198725
54	0xbe1e874e	-0.15481302
55	0xbe114a97	-0.1418861
56	0xbe0bc795	-0.13650353
57	0x3dd9ac47	0.106285624
58	0x3c2c8a1e	0.010530977
59	0x3cf40ca6	0.029791187
60	0xbd513da6	-0.051084183
61	0xbdd350e5	-0.10318164
62	0xbe378f17	-0.17925678
63	0xbd4f9e9e	-0.05068838

bias_ih_l0 f4 [16]
0	0x3f2a46ed	0.66514474
1	0x3f09904c	0.53735805
2	0x3f32c92e	0.69838226
3	0x3edec072	0.435062
4	0x3e9f40ad	0.3110403
5	0x3e212c80	0.15739632
6	0x3e9336d0	0.28752756
7	0x3b8ccf93	0.0042972057
8	0xbd3c892b	-0.04602925
9	0xbdb70648	-0.08936745
10	0xbe144227	-0.1447836
11	0xbe3a1a47	-0.18174087
12	0x3f434042	0.76269925
13	0x3f152445	0.5825847
14	0x3f18d043	0.5969278
15	0x3edfd59b	0.43717656

bias_hh_l0 f4 [16]
0	0x3f2a46ed	0.66514474
1	0x3f09904d	0.5373581
2	0x3f32c92e	0.69838226
3	0x3edec070	0.43506193
4	0x3e9f40ac	0.31104028
5	0x3e212c7e	0.15739629
6	0x3e9336d2	0.28752762
7	0x3b8ccfa1	0.004297212
8	0xbd3c892a	-0.046029247
9	0xbdb70648	-0.08936745
10	0xbe144228	-0.14478362
11	0xbe3a1a49	-0.1817409
12	0x3f434042	0.76269925
13	0x3f152447	0.5825848
14	0x3f18d041	0.5969277
15	0x3edfd599	0.4371765

weight_ih_l0_reverse f4 [16, 4]
0	0x3e7aede2	0.24504808
1	0x3d8e1683	0.069378875
2	0x0011c33d	1.631242e-39
3	0x3eac2ab4	0.3362633
4	0x3f0f9dd5	0.5610021
5	0x3e60d727	0.21957074
6	0x8010c499	-1.539894e-39
7	0x3e73eaaf	0.23819993
8	0x3ea2b5de	0.3177938
9	0x3ebae139	0.36499956
10	0x0011f074	1.647462e-39
11	0x3e97163b	0.29509148
12	0x3ea7cce2	0.327735
13	0x3ec546c9	0.38530567
14	0x803073d3	-4.449654e-39
15	0x3ebbf89e	0.36713117
16	0x3df5e910	0.12007344
17	0x3d659dda	0.056058742
18	0x002c5733	4.072043e-39
19	0x3e37c82a	0.1794745
20	0x3eb9f1c3	0.36317262
21	0x3dcbfadc	0.09959957
22	0x0017701a	2.152431e-39
23	0x3e81984f	0.25311515
24	0x3dba771f	0.09104752
25	0x3e0ad7ec	0.1355893
26	0x80062443	-5.64021e-40
27	0x3e1ef792	0.15524128
28	0x3e1ec02a	0.15502992
29	0x3e89a2b1	0.26881936
30	0x000e2d8a	1.302033e-39
31	0x3dea5b34	0.11443177
32	0x3e2e08f9	0.1699561
33	0xbf443489	-0.7664266
34	0x801973eb	-2.337471e-39
35	0x3f458207	0.7715153
36	0x3f5967d4	0.84924054
37	0xbf4725ea	-0.7779223
38	0x8015033b	-1.929704e-39
39	0x3f723aca	0.94620955
40	0xbf8fd4a1	-1.1236764
41	0xbf41d647	-0.75717586
42	0x801c544e	-2.601637e-39
43	0x3fa0fe74	1.2577653
44	0x3f2632c2	0.649212
45	0xbdb608f2	-0.08888425
46	0x80163a13	-2.041214e-39
47	0x3f5cd104	0.8625643
48	0x3e653692	0.22384098
49	0x3d33e2d7	0.043917503
50	0x801420a1	-1.848415e-39
51	0x3ed2a6a4	0.41142762
52	0x3f133f8a	0.5751883
53	0xbde19722	-0.110151544
54	0x000399d2	3.30687e-40
55	0x3f0a792c	0.54091144
56	0x3e8a3562	0.26993853
57	0x3eaa96d8	0.3331821
58	0x000d316b	1.211589e-39
59	0x3ec21365	0.37905422
60	0x3e88cbcf	0.26717994
61	0x3ed90cb8	0.42392516
62	0x003afb81	5.416681e-39
63	0x3e855e1b	0.2604836

weight_hh_l0_reverse f4 [16, 4]
0	0x3e32e369	0.17469563
1	0x3e659a84	0.22422224
2	0x3e1f3b26	0.15549907
3	0x3e063f23	0.13110022
4	0x3e28bac4	0.16477495
5	0x3e80ae86	0.2513315
6	0x3c93cb7a	0.018041361
7	0x3eb50ae0	0.3535986
8	0x3d893ef7	0.06701463
9	0x3dadd38c	0.08487615
10	0x3d4952f5	0.04915138
11	0x3d8b2881	0.06794835
12	0x3d6d8b4d	0.057994176
13	0x3d26be35	0.04070874
14	0x3d5f5f03	0.05453397
15	0x3e1bd6de	0.15218684
16	0x3e27d5bc	0.16390127
17	0x3e4a5197	0.19757687
18	0x3ddcb010	0.10775769
19	0x3e4921b8	0.19641769
20	0x3e7d8478	0.24757564
21	0x3ebfef7a	0.37487394
22	0xbb3f0480	-0.002914697
23	0x3e9adc5f	0.30246255
24	0x3d98f3bc	0.07468364
25	0x3da4edf7	0.08053201
26	0x3d636eb0	0.05552548
27	0x3de45c4f	0.11150419
28	0x3d63899c	0.055551156
29	0x3d877859	0.06614751
30	0xbafc773f	-0.0019261612
31	0x3e7cb0c0	0.246768
32	0x3f11604c	0.5678756
33	0x3f61b896	0.8817228
34	0x3eb20489	0.34769085
35	0xbeb6cfd5	-0.35705438
36	0x3ee06251	0.4382501
37	0x3f19cb46	0.60075796
38	0xbf20cee5	-0.62815696
39	0x3e494ce1	0.19658233
40	0x3d802149	0.06256349
41	0xbc8f5467	-0.0174963
42	0x3f3b3ba7	0.731379
43	0xbecf4a45	-0.4048635
44	0x3d856f92	0.06515421
45	0x3ed59608	0.41716027
46	0xbebcb7ed	-0.36859074
47	0x3f42516f	0.7590551
48	0x3eb56f10	0.35436296
49	0x3edd0e0a	0.43174773
50	0x3e8d3ade	0.27583975
51	0x3e9dcfc2	0.3082257
52	0x3f0222e6	0.508345
53	0x3f4ce0fa	0.80030787
54	0xbde4b5a7	-0.1116746
55	0x3f3e454e	0.743245
56	0x3e0d1f31	0.1378143
57	0x3e03d35b	0.12873594
58	0x3e39448f	0.1809256
59	0x3e0e72e7	0.1391102
60	0x3e2dcebe	0.16973397
61	0x3e224be5	0.15849264
62	0x3dc1ef2e	0.09469448
63	0x3ead90dd	0.33899584

bias_ih_l0_reverse f4 [16]
0	0x3ed97168	0.42469335
1	0x3f12f182	0.5739976
2	0x3f256eff	0.6462249
3	0x3f04b38d	0.5183647
4	0x3e882885	0.26593414
5	0x3e8de13c	0.27710903
6	0x3eb007fe	0.34381098
7	0x3ed78046	0.42090052
8	0x3d97cb66	0.07411842
9	0xbe335b51	-0.17515303
10	0x3e8cc818	0.2749641
11	0xbddddd1a	-0.108331874
12	0x3ee822b2	0.4533897
13	0x3eb221ae	0.3479132
14	0x3f3856dc	0.72007537
15	0x3f2a3602	0.6648866

bias_hh_l0_reverse f4 [16]
0	0x3ed97168	0.42469335
1	0x3f12f183	0.5739977
2	0x3f256f00	0.646225
3	0x3f04b38e	0.5183648
4	0x3e882885	0.26593414
5	0x3e8de13a	0.27710897
6	0x3eb007fd	0.34381095
7	0x3ed78043	0.42090043
8	0x3d97cb60	0.074118376
9	0xbe335b57	-0.17515312
10	0x3e8cc818	0.2749641
11	0xbddddd24	-0.10833195
12	0x3ee822af	0.4533896
13	0x3eb221af	0.34791324
14	0x3f3856dd	0.7200754
15	0x3f2a3603	0.66488665

in_proj_weight f4 [24, 8]
0	0xbebcc9b6	-0.36872643
1	0xbf19f33a	-0.6013676
2	0xbf427ce5	-0.75971824
3	0x3d8a7268	0.067601025
4	0x3f0204d1	0.507886
5	0xbed10f46	-0.40831965
6	0x3db15ba8	0.0866006
7	0xbc2eeac0	-0.010676086
8	0x3ecf4326	0.40480918
9	0xbf19c090	-0.6005945
10	0x3d286920	0.04111588
11	0x3f4eef9f	0.8083438
12	0x3f1e470d	0.61827165
13	0xbf5bbbaa	-0.8583323
14	0xbe057ffc	-0.13037103
15	0x3c0443c0	0.0080727935
16	0xbe92691e	-0.28595823
17	0xbf11a7cb	-0.56896657
18	0xbf1a4434	-0.6026032
19	0x3f135067	0.5754456
20	0xbe8f8d00	-0.28037262
21	0xbd6447a0	-0.05573237
22	0x3e821bd2	0.2541185
23	0xbf08142d	-0.53155786
24	0x3d9e1608	0.07719046
25	0x3f03df15	0.5151227
26	0xbf01a078	-0.5063548
27	0x3e8100ca	0.25195915
28	0xbcf251e0	-0.029580057
29	0x3ef3ccce	0.4761719
30	0x3f135121	0.5754567
31	0x3e6b4694	0.22976142
32	0x3cd65d60	0.026167572
33	0xbf3ed92b	-0.7455012
34	0x3eb08b2a	0.34481174
35	0x3f072a1b	0.5279862
36	0xbea10e52	-0.31456238
37	0xbf5c234a	-0.85991347
38	0x3f33a8ef	0.7017965
39	0xbe5028c4	-0.20328051
40	0x3e316d14	0.17326766
41	0xbe794a2c	-0.243447
42	0x3f0d62db	0.55228966
43	0x3f5838cd	0.8446167
44	0x3f0af8c1	0.5428582
45	0xbe8d1c62	-0.27560717
46	0x3f1b5deb	0.6069018
47	0x3ed859f6	0.42256135
48	0x3dad09c8	0.08449131
49	0xbf3293bc	-0.69756675
50	0xbebe6524	-0.3718654
51	0xbf5b5979	-0.856834
52	0x3f144837	0.5792269
53	0x3f5b26a1	0.8560582
54	0x3f012511	0.50447184
55	0x3e8dad2e	0.27671188
56	0x3e519704	0.20467764
57	0x3f556b9b	0.8336732
58	0xbee0cc09	-0.43905666
59	0xbe94dcc2	-0.29074675
60	0xbf470fd8	-0.7775855
61	0xbdafa158	-0.08575696
62	0x3d735320	0.059405446
63	0x3e72c164	0.23706585
64	0xbf1a3c24	-0.6024802
65	0xbdcd3df8	-0.10021585
66	0xbf36aede	-0.71360576
67	0xbf345774	-0.7044594
68	0x3de72e20	0.112880945
69	0xbf586a58	-0.8453727
70	0x3e6c235c	0.23060364
71	0xbf4c3b66	-0.79778135
72	0xbf1a442e	-0.60260284
73	0xbe380274	-0.17969686
74	0xbf53910a	-0.8264319
75	0x3f330dd9	0.69943005
76	0x3f35a741	0.70958334
77	0xbee79a70	-0.45235014
78	0x3e39c4dc	0.18141502
79	0x3ee2d5be	0.44303697
80	0x3e8ce6f6	0.2751996
81	0xbded9638	-0.116009176
82	0xbf511cbe	-0.8168448
83	0x3f213561	0.62972075
84	0xbf42745d	-0.75958806
85	0xbe243cac	-0.1603877
86	0x3d5c0a60	0.053720832
87	0xbe92082a	-0.28521854
88	0xbea22d6e	-0.31675285
89	0xbf3f9c65	-0.74848014
90	0x3d437340	0.047717333
91	0xbdc962c0	-0.09833288
92	0x3f4147e1	0.75500304
93	0xbe91fa72	-0.28511387
94	0x3f2b5b71	0.66936404
95	0x3d27ed30	0.040997684
96	0xbec736c6	-0.38908976
97	0xbe52e660	-0.20595694
98	0xbdc945c0	-0.09827757
99	0x3c12f900	0.008970499
100	0xbe121ab0	-0.14267993
101	0x3e839736	0.25701302
102	0x3f369359	0.71318585
103	0x3e0b6454	0.13612491
104	0x3ea09b62	0.31368548
105	0x3f08e7e3	0.5347883
106	0x3e3f274c	0.18667334
107	0x3ecc6592	0.39921242
108	0x3ee896a2	0.45427424
109	0x3f4f8437	0.8106112
110	0xbf4a566f	-0.7903814
111	0x3e97bab6	0.29634637
112	0xbd20bb10	-0.039240897
113	0xbe1f4334	-0.1555298
114	0xbeaaf386	-0.3338892
115	0x3f0549a5	0.520655
116	0x3f4acf87	0.7922291
117	0xbf34edde	-0.70675457
118	0x3eef9016	0.46789616
119	0x3f18dff9	0.59716755
120	0x3e1afdc4	0.15135866
121	0x3c272480	0.010201573
122	0x3f2a9b17	0.666429
123	0x3cd25740	0.02567637
124	0xbe5d3128	-0.21600783
125	0xbd82f8e0	-0.063951254
126	0x3e8e4286	0.27785128
127	0x3e5e00d4	0.21680003
128	0xbd3f6280	-0.046724796
129	0x3e8bf7d6	0.2733752
130	0x3e6ed61c	0.23323864
131	0xbf339794	-0.70153165
132	0x3e5cf8f4	0.21579343
133	0x3f07a5bb	0.5298726
134	0x3dcb66e8	0.09931737
135	0xbda1e3e8	-0.07904798
136	0x3f29d4c1	0.6634026
137	0xbf41b282	-0.75663006
138	0xbeca62e0	-0.3952856
139	0xbec86a3a	-0.39143544
140	0x3f3f9001	0.7482911
141	0xbf566f7b	-0.83763856
142	0x3dafe750	0.08589041
143	0xbf56c2c3	-0.8389093
144	0xbce94b00	-0.028478146
145	0x3ea5460e	0.3228001
146	0xbe4f6270	-0.20252395
147	0x3f5736e5	0.8406814
148	0x3b34ad00	0.0027568936
149	0xbee20fac	-0.44152582
150	0x3e64ad8c	0.22331828
151	0x3ee69956	0.4503886
152	0xbae18400	-0.0017205477
153	0x3f3da923	0.7408621
154	0xbf0c51af	-0.5481214
155	0x3ebd30fa	0.3695143
156	0x3efbc7fa	0.49176008
157	0x3edc3c42	0.43014723
158	0xb9a69000	-0.00031769276
159	0x3e7d270c	0.24721926
160	0xbf2ded9a	-0.67940676
161	0xbf2dfb78	-0.67961836
162	0xbd5c7bf0	-0.053829134
163	0xbdde4b10	-0.10854161
164	0x3f249eab	0.6430461
165	0x3f20fbef	0.6288442
166	0x3f16532b	0.58720654
167	0xbecb1817	-0.39666817
168	0xbf2e0b70	-0.679862
169	0xbf4ff4ea	-0.81233084
170	0x3ea0791a	0.31342393
171	0xbf47c5ae	-0.7803601
172	0xbf5d50ff	-0.86451715
173	0xbee0168d	-0.43767205
174	0xbf3b2f2c	-0.73118854
175	0xbeaebd92	-0.34129006
176	0xbf0b9271	-0.54520327
177	0xbee37b6e	-0.44430107
178	0x3f52c729	0.82335144
179	0xbe271dd0	-0.16319966
180	0x3f37e929	0.7184015
181	0x3c9d68a0	0.019214928
182	0xbde41388	-0.11136538
183	0xbe81d232	-0.2535568
184	0xbf1e7a9e	-0.6190585
185	0xbf32205d	-0.6958063
186	0x3f1982fb	0.59965485
187	0xbe88a3b6	-0.26687402
188	0xbf5827ca	-0.84435713
189	0x3f4b7683	0.7947771
190	0x3c839980	0.016064405
191	0xbf145a32	-0.5795013

in_proj_bias f4 [24]
0	0x00000000	0.0
1	0x00000000	0.0
2	0x00000000	0.0
3	0x00000000	0.0
4	0x00000000	0.0
5	0x00000000	0.0
6	0x00000000	0.0
7	0x00000000	0.0
8	0x00000000	0.0
9	0x00000000	0.0
10	0x00000000	0.0
11	0x00000000	0.0
12	0x00000000	0.0
13	0x00000000	0.0
14	0x00000000	0.0
15	0x00000000	0.0
16	0x00000000	0.0
17	0x00000000	0.0
18	0x00000000	0.0
19	0x00000000	0.0
20	0x00000000	0.0
21	0x00000000	0.0
22	0x00000000	0.0
23	0x00000000	0.0

weight f4 [8, 8]
0	0xbf2e4521	-0.6807423
1	0xbf3a2eb6	-0.72727525
2	0xbf4266a6	-0.7593788
3	0x3f489f91	0.7836848
4	0x3f18dcc9	0.5971189
5	0x3d911088	0.07083231
6	0xbf3cf38b	-0.7380912
7	0xbe67f25c	-0.22651047
8	0xbf504423	-0.8135397
9	0x3e98ce6a	0.2984498
10	0xbe6b7728	-0.22994673
11	0xbe3dc5c0	-0.18532467
12	0xbe8a592e	-0.27021164
13	0x3ecfe41e	0.40603727
14	0x3ef002ae	0.46877044
15	0x3e4243a4	0.18971115
16	0xbdde19f8	-0.10844797
17	0xbdaf46b8	-0.085584104
18	0xbc77ef00	-0.015132666
19	0xbf251809	-0.644898
20	0x3f5854a3	0.84504145
21	0xbebf3b9a	-0.3735016
22	0x3f00fcef	0.50385946
23	0xbef89269	-0.48549202
24	0x3bbe8180	0.0058137774
25	0x3e97ca26	0.29646415
26	0xbf4b901a	-0.79516757
27	0x3ecb63ca	0.3972457
28	0xbf29b376	-0.6628946
29	0x3df78088	0.12085062
30	0xbe2fda94	-0.17173225
31	0x3efe2b8a	0.49642593
32	0x3f57790f	0.84169096
33	0x3e47db4c	0.19517249
34	0xbcca9380	-0.024728537
35	0xbedbaec5	-0.42906776
36	0x3ea55142	0.32288557
37	0xbed56bba	-0.4168375
38	0x3eb727ee	0.3577265
39	0xbec02f17	-0.37535927
40	0x3f166249	0.5874372
41	0x3f2a0dc5	0.6642726
42	0x3f07f1d3	0.5310337
43	0x3c0e2180	0.008674979
44	0x3ecda052	0.40161377
45	0xbf4a05c5	-0.78915054
46	0x3f33cb75	0.70232326
47	0xbe666774	-0.22500402
48	0x3ea1a56e	0.31571525
49	0xbe162bd0	-0.1466515
50	0xbe94e3be	-0.29080003
51	0xbed039b4	-0.40669024
52	0x3f0f00d1	0.5586062
53	0xbef13bf2	-0.47116047
54	0xbe1c628c	-0.15271968
55	0x3edfacfa	0.43686658
56	0x3db2c1e8	0.08728391
57	0xbf3a8a55	-0.7286733
58	0xbf5c7493	-0.8611538
59	0xbed79251	-0.42103818
60	0x3f4c7ad7	0.7987494
61	0xbf1da2de	-0.6157664
62	0x3ef4604a	0.47729713
63	0x3f1eb2b9	0.6199146

bias f4 [8]
0	0x00000000	0.0
1	0x00000000	0.0
2	0x00000000	0.0
3	0x00000000	0.0
4	0x00000000	0.0
5	0x00000000	0.0
6	0x00000000	0.0
7	0x00000000	0.0

weight f4 [7, 8]
0	0xbf033b9e	-0.51262844
1	0x3e214ce7	0.15751992
2	0xbf6163b4	-0.8804276
3	0x3ebe6c3f	0.3719196
4	0xbf3e3cd8	-0.7431159
5	0xbf6ef4d4	-0.9334233
6	0x3e454d89	0.19267859
7	0xbebe4aa1	-0.37166312
8	0xbef6bf78	-0.48192954
9	0xbd7066d1	-0.058691803
10	0xbf223f54	-0.6337788
11	0x3ef5e2db	0.4802464
12	0xbeb57d6d	-0.35447255
13	0xbf802f7c	-1.0014491
14	0x3e77ccd8	0.24199235
15	0xbf3fcb93	-0.74920005
16	0xbeed62fd	-0.46364585
17	0x3e2fd92c	0.17172688
18	0xbf86ff45	-1.0546652
19	0x3ebbc287	0.3667185
20	0xbf24de5e	-0.64401805
21	0xbfa98e43	-1.324654
22	0x3daac90f	0.0833913
23	0xbecc918e	-0.399548
24	0xbe88579e	-0.26629347
25	0x3fb0ee68	1.3822756
26	0xbc2b290d	-0.010446799
27	0xbe2ddfd5	-0.16979916
28	0xbee404d1	-0.44534925
29	0xbdfd41d0	-0.12366068
30	0xbfd063ca	-1.6280453
31	0x3e104975	0.14090522
32	0xbf8d6e13	-1.1049217
33	0x3f131fc3	0.5747034
34	0x3ed5a8e2	0.4173041
35	0x3f47bcf9	0.78022724
36	0xbf1cb01d	-0.6120623
37	0xbe2a9a8c	-0.16660517
38	0xbecd6f2a	-0.40123874
39	0xbe84fd07	-0.25974295
40	0xbf4907eb	-0.78527707
41	0x3f34e908	0.7066808
42	0xbf2336f8	-0.6375575
43	0x3e33c67f	0.17556189
44	0xbf4a624a	-0.7905623
45	0xbf95be4e	-1.1698701
46	0xbef02dd0	-0.46909952
47	0xbf1dd817	-0.6165785
48	0x3f8b578c	1.0886092
49	0xbf2c5a46	-0.67325246
50	0xbf010ef1	-0.50413424
51	0xbebc62c2	-0.36794096
52	0x3f5b539a	0.8567444
53	0x3ca3986a	0.019970138
54	0x3f68bc0e	0.9091195
55	0x3f91d4a8	1.1393023

bias f4 [7]
0	0xbeb2ae1c	-0.3489846
1	0xbdd8387c	-0.105576485
2	0xbedb68da	-0.42853433
3	0xbebb3665	-0.36564937
4	0xbdb415ac	-0.08793196
5	0xbee56028	-0.44799924
6	0xbc88fb1e	-0.016721305
