src/frontend/temp_static_turim_no_nan_val.pt (torch, 70771 bytes, 66 tensors)

weight_ih_l0 f4 [16, 7]
-0.11561586 -0.063223295 -0.20310004 0.10003048 -0.014607513 -0.13017951 -0.09137471 0.08985571
0.1345119 0.04998277 -0.30641854 0.08342334 0.010411507 -0.10252326 -0.05875972 -0.05355758
-0.10119255 0.19644651 0.09573891 -0.024014765 -0.2555816 0.056316994 0.13279758 0.09175414
-0.15205023 -0.023785064 0.030057019 -0.11664095 -0.20251957 -0.07231674 -0.15640573 0.005264608
0.02500034 -0.11519125 -0.028486086 0.044283643 0.1067323 0.06453729 -0.1395463 0.06297788
0.034206998 -0.074861705 0.018886775 0.042931028 -0.016733017 0.18385834 0.013750285 0.076404996
-0.32357055 0.073284686 0.032722354 0.024855284 -0.08423547 -0.23276624 -0.05508861 0.037490427
-0.1971749 -0.2262416 -0.16931394 -0.08453141 -0.038594898 0.10501238 -0.06494842 0.15707207
0.28744712 0.188991 -0.1252859 0.011912355 0.029146573 -0.03848277 -0.033892207 -0.00927651
-0.004595858 0.075966954 0.12738402 -0.13674048 -0.22854406 0.14543188 0.18139195 0.19148144
-0.16422354 -0.10226763 -0.08399088 0.07544107 -0.28733435 -0.13995452 -0.25439855 0.032511327
0.025518341 -0.15005271 -0.036614865 0.13503863 0.22506478 0.11981229 -0.33960527 0.07687666
0.04587436 -0.14470613 -0.029603107 -0.0150289405 -0.10573343 0.32239455 0.10731706 0.06398461
-0.5847319 0.17091496 0.020719418 0.084984496 -0.37101725 -0.13762924 -0.09234538 0.2256975
00000000: 02c8 ecbd 377b 81bd 75f9 4fbe c8dc cc3d
00000010: 5a54 6fbc c74d 05be aa22 bbbd 4506 b83d
00000020: 7dbd 093e bcba 4c3d e4e2 9cbe dbd9 aa3d
00000030: 0795 2a3c b7f7 d1bd 08ae 70bd 315f 5bbd
00000040: 0a3e cfbd 4629 493e c312 c43d 9dba c4bc
00000050: 97db 82be a6ac 663d 17fc 073e 98e9 bb3d
00000060: 0eb3 1bbe e5d8 c2bc 233a f63c 73e1 eebd
00000070: 4a61 4fbe cd1a 94bd d328 20be bc82 ac3b
00000080: 83cd cc3c 64e9 ebbd a75b e9bc c462 353d
00000090: 7796 da3d 202c 843d 3ae5 0ebe 8cfa 803d
000000a0: a31c 0c3d 1851 99bd 70b8 9a3c 72d8 2f3d
000000b0: ae13 89bc 5c45 3c3e e048 613c 397a 9c3d
000000c0: 0aab a5be 4816 963d e007 063d 4f9d cb3c
000000d0: a583 acbd 465a 6ebe 98a4 61bd 908f 193d
000000e0: 38e8 49be e1ab 67be a260 2dbe ce1e adbd
000000f0: af15 1ebd bb10 d73d ad03 85bd 80d7 203e
00000100: 452c 933e db86 413e f24a 00be 0a2c 433c
00000110: cbc4 ee3c 1ca0 1dbd 8ed2 0abd 81fc 17bc
00000120: da98 96bb 9094 9b3d f570 023e b205 0cbe
00000130: 7407 6abe 18ec 143e d0be 393e b613 443e
00000140: 372a 28be b171 d1bd 6903 acbd d980 9a3d
00000150: 7d1d 93be 3d50 0fbe 8740 82be 992a 053d
00000160: d70b d13c 6ba7 19be 78f9 15bd 9147 0a3e
00000170: 6277 663e 2560 f53d bee0 adbe 8371 9d3d
00000180: c1e6 3b3d d82d 14be 3782 f2bc f23b 76bc
00000190: c58a d8bd e610 a53e 0cc9 db3d 5d0a 833d
000001a0: fdb0 15bf 5504 2f3e c5bb a93c 5a0c ae3d
000001b0: f9f5 bdbe aeee 0cbe 931f bdbd 3f1d 673e

weight_hh_l0 f4 [16, 4]
0.037340805 -0.010260045 -0.006217746 -0.03842917 -0.0014276893 0.028261963 0.01674715 0.0156229
0.018294673 0.011217097 0.03465444 0.01097768 0.002768749 0.008346808 0.057159964 0.028007163
0.045173902 0.00092398596 0.00948393 -0.015661681 0.001025645 0.03161479 0.009278545 0.019135013
0.03489309 -0.004066289 0.01914626 -0.016533261 0.019425975 0.014275743 0.04753673 0.004550673
0.0029492297 0.011012879 0.010186923 -0.023049237 0.0066394424 -0.01167176 -0.011115234 0.0028592872
0.05236049 0.04168955 -0.0012061743 0.040191755 -0.06881779 0.005345566 0.039717276 0.00888158
0.08047645 -0.006488612 0.017694004 -0.022631805 -0.0031859656 0.06164011 0.019849733 0.043941617
0.05095191 -0.0059696515 0.043913543 -0.02778347 -0.005157599 0.026814478 0.059445493 0.044478673
00000000: acf2 183d bf19 28bc 3cbe cbbb e867 1dbd
00000010: 4e21 bbba a285 e73c 5231 893c 31f7 7f3c
00000020: b6de 953c eac7 373c d0f1 0d3d badb 333c
00000030: e673 353b 0dc1 083c 9120 6a3d 476f e53c
00000040: 4508 393d a637 723a 7c62 1b3c ed4c 80bc
00000050: ef6e 863a 837e 013d 0a05 183c 08c1 9c3c
00000060: 0fec 0e3d 813e 85bb 9ed8 9c3c c370 87bc
00000070: 3923 9f3c cee4 693c e0b5 423d d01d 953b
00000080: dd47 413b 5d6f 343c 0de7 263c c1d1 bcbc
00000090: ae8f d93b e93a 3fbc ac1c 36bc e162 3b3b
000000a0: f477 563d a9c2 2a3d 7e18 9eba 1ca0 243d
000000b0: 57f0 8cbd dc29 af3b 95ae 223d 0c84 113c
000000c0: d6d0 a43d 6c9e d4bb 04f3 903c 5666 b9bc
000000d0: a2cb 50bb 577a 7c3d e89b a23c 20fc 333d
000000e0: f3b2 503d 119d c3bb b0de 333d 299a e3bc
000000f0: 1401 a9bb 09aa db3c 1e7d 733d 452f 363d

bias_ih_l0 f4 [16]
-0.03452481 0.023936829 0.07040262 0.2226108 0.0030977377 0.01253058 0.0130152805 0.09088748
-0.1383427 0.025620338 0.2820194 0.41321835 0.03637477 0.06085359 0.02048507 0.22692478
00000000: e369 0dbd 2b17 c43c 402f 903d 16f4 633e
00000010: 6a03 4b3b 104d 4d3c 0b3e 553c 3723 ba3d
00000020: b5a9 0dbe bee1 d13c d964 903e 5b91 d33e
00000030: b6fd 143d 9d41 793d 4ed0 a73c f85e 683e

bias_hh_l0 f4 [16]
-0.034524802 0.023936814 0.07040266 0.2226108 0.0030977395 0.012530576 0.013015281 0.090887494
-0.13834272 0.025620341 0.28201935 0.41321835 0.036374774 0.060853574 0.020485083 0.22692476
00000000: e169 0dbd 2317 c43c 452f 903d 16f4 633e
00000010: 7203 4b3b 0c4d 4d3c 0c3e 553c 3923 ba3d
00000020: b7a9 0dbe c0e1 d13c d764 903e 5b91 d33e
00000030: b7fd 143d 9941 793d 55d0 a73c f75e 683e

weight_ih_l0_reverse f4 [16, 7]
0.086756304 0.034172103 -0.16594225 -0.17793453 -0.0051803393 -0.11877636 0.0752158 0.12303257
0.062907495 0.058834404 -0.005172233 -0.021426624 0.056984637 -0.2441587 -0.030289972 -0.02102282
-0.043050297 -0.130714 -0.08062165 -0.077629745 0.023569593 -0.06740978 -0.032707024 -0.034838557
0.045426223 0.047950078 0.036218483 0.0046569686 0.055294443 -0.013747695 0.008817244 -0.14194494
-0.16141187 -0.092260666 -0.009938892 0.07413821 0.051140703 0.073136136 -0.0077009536 0.038147192
0.069035664 -0.09618769 0.014551749 -0.0064735897 -0.008575118 -0.06709351 -0.08122529 -0.04222718
-0.00048079056 -0.054202624 -0.031876426 -0.03816845 0.032885194 0.05851103 -0.010063627 0.05045079
-0.15823409 -0.060685538 0.009322442 -0.046599932 -0.11097914 -0.048848033 0.16972859 0.110048324
0.10447947 0.21742985 0.0729777 -0.03148685 0.14949802 -0.031167183 -0.11553284 0.12282064
0.016836613 -0.06087297 -0.24935123 0.025356129 -0.10172188 -0.016834658 0.029688086 0.03366716
-0.17210075 -0.1626984 -0.08989269 0.28427297 -0.003370361 -0.003306049 -0.06720785 -0.027004063
-0.20746009 -0.28356355 0.24037455 0.1665311 0.08069837 0.13483623 0.03120288 0.09014993
0.14331548 -0.23049328 -0.013562815 -0.00828405 -0.029181039 -0.13759017 -0.1539709 -0.092655145
0.013708878 -0.011463013 0.056087222 0.08310216 0.14954041 0.15134619 0.1385137 -0.017699251
00000000: 4aad b13d 0cf8 0b3d c4ec 29be 7834 36be
00000010: d6bf a9bb 0541 f3bd be0a 9a3d 80f8 fb3d
00000020: a5d5 803d 58fc 703d d67b a9bb e386 afbc
00000030: b968 693d bd04 7abe ad22 f8bc 0d38 acbc
00000040: 8255 30bd e4d9 05be f71c a5bd 58fc 9ebd
00000050: 0515 c13c 240e 8abd cdf7 05bd e0b2 0ebd
00000060: d910 3a3d 4d67 443d d559 143d 7c99 983b
00000070: 6d7c 623d 033e 61bc 3476 103c 045a 11be
00000080: 2749 25be 29f3 bcbd bcd6 22bc c6d5 973d
00000090: ea78 513d 66c8 953d 4858 fcbb 3b40 1c3d
000000a0: 9262 8d3d 0dfe c4bd 766a 6e3c 6820 d4bb
000000b0: a77e 0cbc 5268 89bd 7259 a6bd 68f6 2cbd
000000c0: 9e12 fcb9 9203 5ebd db90 02bd 8556 1cbd
000000d0: a0b2 063d 43a9 6f3d e9e1 24bc 7da5 4e3d
000000e0: 1e08 22be 6691 78bd 28bd 183c 92df 3ebd
000000f0: 0849 e3bd e014 48bd 55cd 2d3e 0461 e13d
00000100: 55f9 d53d eea5 5e3e 5575 953d 5bf8 00bd
00000110: 0216 193e 5252 ffbc 7b9c ecbd 6389 fb3d
00000120: f0ec 893c ef55 79bd ee55 7fbe a8b7 cf3c
00000130: 9053 d0bd d6e8 89bc 6e34 f33c 93e6 093d
00000140: 2e3b 30be 699a 26be a919 b8bd 3a8c 913e
00000150: 46e1 5cbb 4caa 58bb 45a4 89bd a037 ddbc
00000160: 6b70 54be 3e2f 91be bf24 763e 2187 2a3e
00000170: 3045 a53d 8212 0a3e 2f9d ff3c 87a0 b83d
00000180: 4bc1 123e 6e06 6cbe 9236 5ebc d3b9 07bc
00000190: 130d efbc 70e4 0cbe 8caa 1dbe fbc1 bdbd
000001a0: 349b 603c 5ccf 3bbc b7bb 653d 7731 aa3d
000001b0: 1f21 193e 7ffa 1a3e 89d6 0d3e 05fe 90bc

weight_hh_l0_reverse f4 [16, 4]
-0.047623623 0.005180825 -0.03756894 -0.0008514904 -0.026317004 0.030484734 0.0060668606 -0.030475426
0.0071094763 -6.485629e-05 -0.0026314592 -0.0010064198 0.026843302 0.002897567 0.011069396 0.012189808
-0.05424222 0.0060853516 -0.025996303 -0.01576073 0.002855782 0.030529905 0.020400822 -0.019933498
0.0022801838 -0.007462429 -0.002783704 -0.008487915 0.029127024 0.005275853 0.0042743674 0.015075812
-0.07174351 -0.030917361 -0.033034984 0.01387937 -0.040832564 0.061024107 -0.027006986 -0.04206086
-0.016580867 -0.033126734 -0.017237382 -0.0023831932 0.109772526 0.024520006 0.014428378 0.04726798
-0.107278526 0.010571999 -0.051044628 -0.02692589 -0.021249803 0.054954804 0.010060571 -0.045017518
0.011506486 -0.0064666755 0.0032644784 -0.0023168083 0.03770391 0.0004043535 0.018805923 0.013213103
00000000: fd10 43bd e9c3 a93b e4e1 19bd 8e36 5fba
00000010: c296 d7bc 1fbb f93c 84cc c63b 9aa7 f9bc
00000020: 9cf6 e83b 7503 88b8 8f74 2cbb d8e9 83ba
00000030: 7ce6 db3c 1ce5 3d3b 695c 353c c3b7 473c
00000040: 172d 5ebd a167 c73b 33f6 d4bc a51c 81bc
00000050: 1228 3b3b da19 fa3c a01f a73c 934b a3bc
00000060: 236f 153b 6487 f4bb ce6e 36bb e510 0bbc
00000070: cc9b ee3c 10e1 ac3b fe0f 8c3b 8a00 773c
00000080: 43ee 92bd 6846 fdbc b14f 07bd 4c66 633c
00000090: 0c40 27bd 6af4 793d c13d ddbc 0248 2cbd
000000a0: 99d4 87bc e6af 07bd 6935 8dbc 592f 1cbb
000000b0: 6bd0 e03d 2ede c83c 0165 6c3c 129c 413d
000000c0: d8b4 dbbd 2d36 2d3c 2c14 51bd af93 dcbc
000000d0: 1114 aebc 4a18 613d 18d5 243c 4a64 38bd
000000e0: b385 3c3c 68e6 d3bb dcf0 553b 98d5 17bb
000000f0: 6a6f 1a3d 68ff d339 e10e 9a3c c57b 583c

bias_ih_l0_reverse f4 [16]
-0.10491985 0.042232126 -0.004990905 0.08352998 -0.0917532 0.062115524 -0.010399393 0.06939732
0.21675986 0.10661705 -0.0510377 0.055421308 -0.14375356 0.07173318 -0.0056848256 0.07159247
00000000: 38e0 d6bd 98fb 2c3d bf8a a3bb c411 ab3d
00000010: 1ae9 bbbd d96c 7e3d 3762 2abc 2f20 8e3d
00000020: 4cf6 5d3e 0a5a da3d e80c 51bd 7401 633d
00000030: 2234 13be d8e8 923d c647 babb 139f 923d

bias_hh_l0_reverse f4 [16]
-0.10491986 0.04223214 -0.0049909116 0.083529964 -0.091753185 0.062115524 -0.01039939 0.06939733
0.2167598 0.10661709 -0.051037706 0.055421337 -0.14375353 0.07173317 -0.0056848247 0.0715925
00000000: 39e0 d6bd 9cfb 2c3d cd8a a3bb c211 ab3d
00000010: 18e9 bbbd d96c 7e3d 3462 2abc 3020 8e3d
00000020: 48f6 5d3e 105a da3d ea0c 51bd 7c01 633d
00000030: 2034 13be d7e8 923d c447 babb 179f 923d

weight_ih_l0 f4 [16, 8]
0.2813322 0.11302991 0.11709158 0.030311285 0.13639583 0.079038665 0.06613842 0.033015903
0.11009716 0.06739334 0.14244394 0.1427052 0.16457093 0.060914677 0.079469986 -0.0021908775
0.13152741 0.11162196 0.14972676 0.150328 0.142621 0.11247064 0.08750414 0.019016068
0.07991492 0.11403639 0.13933672 0.12753965 0.05200247 0.027854852 -0.005304392 0.03357581
0.22180396 0.08361829 0.079065084 0.077844515 0.10778615 0.07060624 0.049498037 0.02016399
0.09214396 0.014114527 0.06091818 0.08636707 0.08848417 0.015554081 0.0319647 0.021559482
0.08525341 0.08213739 0.11674942 0.11179295 0.07643386 0.078538455 0.040317897 0.021312634
0.04924375 0.047882352 0.1182644 0.04886382 0.018732935 0.02040103 -0.010549089 0.010054398
0.6028804 -0.1942499 0.05247019 -0.64339775 0.35656822 -0.3430127 0.18695655 -0.37330317
-0.35480854 -0.0711996 0.6215357 -0.51130265 -0.43540278 0.33841133 0.008214166 0.029589213
-0.29226354 -0.29816154 -0.37730598 0.2868352 0.48691678 -0.36211932 0.17343333 -0.19223824
-0.36817718 0.58415186 -0.31350988 0.67336345 -0.11819273 -0.031139154 0.15264334 -0.21123146
0.33887175 0.25261977 0.18612812 0.052483167 0.063685484 0.14134887 0.064270526 -0.0036204655
0.14611906 0.05509638 0.14882989 0.20964193 0.12888797 0.047526672 0.0584336 0.023451379
0.11958186 0.15407065 0.26161987 0.1628366 0.08135272 0.14356725 0.06501139 0.0014590994
0.09702565 0.1165326 0.21889292 0.12087763 0.036609758 0.03445998 -0.0016338015 0.016147852
00000000: c60a 903e 3a7c e73d b6cd ef3d 5f4f f83c
00000010: 59ab 0b3e 06df a13d 9473 873d af3b 073d
00000020: 9f7a e13d 8505 8a3d d3dc 113e 5021 123e
00000030: 4885 283e ab81 793d 29c1 a23d d394 0fbb
00000040: 1faf 063e 0e9a e43d f951 193e 95ef 193e
00000050: 3d0b 123e 0257 e63d 5f35 b33d 96c7 9b3c
00000060: 6faa a33d e98b e93d 49ae 0e3e c199 023e
00000070: 8b00 553d dc2f e43c 77d0 adbb ca86 093d
00000080: 9420 633e 1140 ab3d e0ec a13d f26c 9f3d
00000090: fcbe dc3d 019a 903d 74be 4a3d f42e a53c
000000a0: f9b5 bc3d 9e40 673c 5785 793d 38e1 b03d
000000b0: 3037 b53d 8bd6 7e3c 6bed 023d 839d b03c
000000c0: 5799 ae3d a637 a83d 521a ef3d b4f3 e43d
000000d0: 5b89 9c3d c5d8 a03d 6124 253d d597 ae3c
000000e0: d0b3 493d 4920 443d 9b34 f23d 6e25 483d
000000f0: d075 993c 1020 a73c 16d6 2cbc 34bb 243c
00000100: 5f56 1a3f 72e9 46be fbea 563d b7b5 24bf
00000110: 1c90 b63e 5c9f afbe 8a71 3f3e 9821 bfbe
00000120: 77a9 b5be 19d1 91bd f71c 1f3f bbe4 02bf
00000130: 1ded debe 4044 ad3e b694 063c 1465 f23c
00000140: 91a3 95be a1a8 98be 402e c1be 10dc 923e
00000150: 284d f93e b467 b9be 8298 313e 1ada 44be
00000160: b881 bcbe fa8a 153f 5e84 a0be 8c61 2c3f
00000170: 080f f2bd 8a17 ffbc 894e 1c3e 0f4d 58be
00000180: 9980 ad3e 6157 813e 5f98 3e3e 97f8 563d
00000190: 896d 823d c2bd 103e 44a0 833d 5545 6dbb
000001a0: 3ca0 153e beac 613d dd66 183e 60ac 563e
000001b0: 35fb 033e 54ab 423d 1258 6f3d 1b1d c03c
000001c0: 56e7 f43d b2c4 1d3e 0af3 853e a3be 263e
000001d0: 419c a63d 4b03 133e b124 853d 403f bf3a
000001e0: 62b5 c63d a5a8 ee3d 7725 603e b18e f73d
000001f0: 1df4 153d e825 0d3d 4825 d6ba 8048 843c

weight_hh_l0 f4 [16, 4]
0.07126758 -0.091830574 -0.050230574 -0.10236672 -0.03138998 -0.02419871 -0.05370469 -0.069290146
-0.034583952 -0.054173663 -0.041762788 -0.019533422 -0.065379396 -0.06071259 -0.06643614 -0.041710325
0.04254495 -0.109693766 -0.02420983 -0.1039959 0.039997023 -0.09134101 0.046258286 -0.06307273
-0.016113807 -0.08981728 -0.011433831 -0.04576182 -0.035849728 -0.042777415 -0.051641747 -0.039786488
0.21624584 -0.057641674 0.16481902 -0.33807373 -0.11549658 -0.035468787 -0.14147334 -0.22332036
0.32335642 -0.19550009 0.37469932 0.19079627 -0.16015309 0.13152361 -0.1166977 0.29918453
0.14317283 -0.17492953 -0.07437993 -0.12785046 0.01525665 -0.117977194 -0.00020661212 -0.11157687
-0.062061552 -0.074205644 -0.08248924 -0.060291536 -0.07249065 -0.0687339 -0.11817776 -0.08458978
00000000: bdf4 913d ab11 bcbd 93be 4dbd a5a5 d1bd
00000010: c892 00bd 603c c6bc 73f9 5bbd fee7 8dbd
00000020: e7a7 0dbd 34e5 5dbd 750f 2bbd 8e04 a0bc
00000030: a2e5 85bd c4ad 78bd ac0f 88bd 72d8 2abd
00000040: 9d43 2e3d 20a7 e0bd b253 c6bc cdfb d4bd
00000050: ebd3 233d ff10 bbbd 5479 3d3d 472c 81bd
00000060: 1a01 84bc 1ff2 b7bd f754 3bbc bf70 3bbd
00000070: 2ad7 12bd 5f37 2fbd 4c86 53bd 28f7 22bd
00000080: 8d6f 5d3e ad19 6cbd 51c6 283e 0018 adbe
00000090: 7989 ecbd b847 11bd 63de 10be 18ae 64be
000000a0: f98e a53e 2d31 48be 97d8 bf3e 1960 433e
000000b0: 2cff 23be 20ae 063e 34ff eebd b72e 993e
000000c0: e69b 123e ba20 33be 8154 98bd 3beb 02be
000000d0: 07f7 793c 079e f1bd 05a6 58b9 6a82 e4bd
000000e0: 4134 7ebd 21f9 97bd 1ef0 a8bd 42f4 76bd
000000f0: fa75 94bd 5cc4 8cbd 2e07 f2bd 683d adbd

bias_ih_l0 f4 [16]
0.27317846 0.31564415 0.35091665 0.39598462 0.3056258 0.23414434 0.27917093 0.24451023
-0.114957295 -0.07413914 -0.09241627 -0.19906937 0.3303478 0.43531585 0.43999428 0.48117572
00000000: 0cde 8b3e 1c9c a13e 59ab b33e 7fbe ca3e
00000010: fc7a 9c3e 89c3 6f3e 7eef 8e3e e460 7a3e
00000020: bb6e ebbd 43d6 97bd be44 bdbd d7d8 4bbe
00000030: 5923 a93e b8e1 de3e ee46 e13e aa5c f63e

bias_hh_l0 f4 [16]
0.2731785 0.3156441 0.35091662 0.39598462 0.3056258 0.23414434 0.27917096 0.24451023
-0.11495734 -0.07413911 -0.09241634 -0.19906946 0.33034787 0.43531585 0.43999428 0.4811757
00000000: 0dde 8b3e 1a9c a13e 58ab b33e 7fbe ca3e
00000010: fc7a 9c3e 89c3 6f3e 7fef 8e3e e460 7a3e
00000020: c16e ebbd 3fd6 97bd c744 bdbd ddd8 4bbe
00000030: 5b23 a93e b8e1 de3e ee46 e13e a95c f63e

weight f4 [4, 4]
-1.1413553 -0.6609083 -0.26194984 -0.36381882 1.1312903 0.5776696 0.7885066 0.83308303
-0.9148888 -0.14185119 0.1788429 0.318547 0.6298038 -0.4873343 -0.36930275 1.0247947
00000000: ee17 92bf 4931 29bf 4a1e 86be 7646 babe
00000010: 1fce 903f 28e2 133f 92db 493f ee44 553f
00000020: 2736 6abf 7041 11be 9822 373e 9818 a33e
00000030: d23a 213f e283 f9be 4015 bdbe 792c 833f

bias f4 [4]
0.01 0.01 0.01 0.01
00000000: 0ad7 233c 0ad7 233c 0ad7 233c 0ad7 233c

in_proj_weight f4 [12, 4]
0.36580783 0.15267932 0.8390199 0.83857775 0.34321654 0.40003997 0.13106 0.08245313
0.68802476 0.28640372 0.89804775 0.09964341 0.43088746 0.5107959 0.75697356 0.90466535
0.83860224 0.720098 0.2705031 0.14292616 0.052693605 0.5248023 0.9849401 0.40502876
0.47895074 0.136653 0.65350485 0.8169917 0.0070420504 0.1479389 0.8703539 0.6183823
0.46882695 0.58937913 0.42397904 0.15051752 0.032785058 0.82885396 0.44053167 0.31430638
0.3709424 0.22728848 0.35190833 0.070792794 0.8741718 0.70417124 0.24783927 0.32934338
00000000: 2a4b bb3e f857 1c3e 02ca 563f 08ad 563f
00000010: 14ba af3e 0ad2 cc3e 9834 063e 30dd a83d
00000020: 6422 303f 82a3 923e 75e6 653f d811 cc3d
00000030: 489d dc3e 85c3 023f 05c9 413f 2698 673f
00000040: a3ae 563f 5858 383f 627f 8a3e 3c5b 123e
00000050: 40d5 573d 7259 063f 0925 7c3f ee5f cf3e
00000060: 0839 f53e c4ee 0b3e 184c 273f 5e26 513f
00000070: 00c1 e63b 4c7d 173e 83cf 5e3f 4d4e 1e3f
00000080: 160a f03e 8de1 163f c813 d93e 4421 1a3e
00000090: a049 063d c62f 543f 5e8d e13e c4ec a03e
000000a0: 2aec bd3e 50be 683e 542d b43e d0fb 903d
000000b0: b9c9 5f3f 9144 343f 94c9 7d3e b29f a83e

in_proj_bias f4 [12]
0.0 0.0 0.0 0.0 0.0 0.0 0.0 0.0
0.0 0.0 0.0 0.0
00000000: 0000 0000 0000 0000 0000 0000 0000 0000
00000010: 0000 0000 0000 0000 0000 0000 0000 0000
00000020: 0000 0000 0000 0000 0000 0000 0000 0000

weight f4 [4, 4]
0.72431874 0.3148473 0.63184685 0.63767076 0.18525338 0.62525076 0.5305921 0.93669194
0.31909 0.37146574 0.9308003 0.091698825 0.5361242 0.98175114 0.27581602 0.9793411
00000000: f46c 393f aa33 a13e b7c0 213f 643e 233f
00000010: 10b3 3d3e 6f10 203f e2d4 073f 0bcb 6f3f
00000020: c45f a33e c230 be3e ee48 6e3f 98cc bb3d
00000030: 703f 093f 0b54 7b3f c237 8d3e 19b6 7a3f

bias f4 [4]
0.0 0.0 0.0 0.0
00000000: 0000 0000 0000 0000 0000 0000 0000 0000

weight f4 [14, 7, 3]
5.82164e-40 -3.3488e-41 1.92681e-40 2.08594e-40 -4.22821e-40 -3.44949e-40 3.70983e-40 2.06902e-40
-2.76923e-40 -4.48617e-40 -9.1062e-41 1.60733e-40 -4.3698e-40 -1.42673e-40 6.32532e-40 3.38301e-40
4.0022e-41 5.87168e-40 -1.98061e-40 -2.9069e-41 4.0891e-40 -1.1979e-40 -5.94306e-40 6.69573e-40
-1.1932618e-13 -4.158e-40 -6.6588e-40 1.63949e-40 -8.0282e-41 4.53518e-40 1.3630659e-05 2.32331e-40
2.20224e-40 -2.52466e-40 4.84877e-40 -3.90151e-40 -6.13606e-40 -5.68783e-40 1.45106e-40 -5.61114e-40
1.04053e-40 1.91978e-40 2.43247e-40 5.579e-41 -3.30747e-40 2.59736e-40 -3.812e-42 -4.20649e-40
-1.8395661e-13 -1.4251e-41 -5.46718e-40 1.12073e-40 -2.82694e-40 -5.84333e-40 1.69378e-40 2.93239e-40
-3.51796e-40 2.21408e-40 6.33415e-40 -2.5367e-40 -6.09272e-40 1.09594e-40 6.1467e-41 -5.515739e-15
1.36659e-40 -4.43992e-40 -1.0742e-41 -4.6164e-40 8.939848e-14 -8.836e-41 1.73133e-40 -3.2789e-41
-2.7381e-40 -4.42079e-40 8.6167e-41 4.2281e-41 -3.687e-40 5.462e-42 -3.86415e-40 1.46932e-40
-1.03438e-40 -2.03246e-40 1.4679e-40 -3.79696e-40 3.0142e-41 -5.0867e-40 -3.83303e-40 8.5224e-41
-4.89224e-40 -1.50979e-40 1.73513e-40 -3.08052e-40 5.2195e-40 -4.97706e-40 6.93826e-40 -2.7109381e-05
1.0058835e-07 -2.87425e-40 5.5578e-40 4.2002e-40 8.125e-42 -5.89221e-40 -5.64782e-40 7.641e-41
1.38933e-40 -1.32934e-40 -4.48788e-40 3.8425e-40 1.43598e-40 9.6222e-41 -4.06211e-40 4.87534e-40
-1.60076e-40 4.86117e-40 2.39483e-40 4.9694e-41 -4.01796e-40 6.46646e-40 6.44597e-40 -3.3417e-41
4.29476e-40 -2.87048e-40 4.634e-40 3.51276e-40 3.3719e-40 -1.4533e-41 -6.13226e-40 6.7538e-41
-1.32382e-40 1.50556e-40 2.72425e-40 -6.33166e-40 6.3664e-41 -7.774e-42 -4.41801e-40 -1.18691e-40
-2.54519e-40 -1.96871e-40 1.51274e-40 3.52033e-40 1.66612e-40 -2.04875e-40 6.0608e-41 -4.84639e-40
4.8659e-40 -3.41107e-40 9.1478e-41 -2.54416e-40 -3.39044e-40 5.532e-42 5.45835e-40 3.81908e-40
-5.36686e-40 2.18636e-40 -5.19002e-40 -2.3152e-41 -8.1343e-41 -6.6489e-41 6.04366e-40 1.44443e-40
3.7613e-40 8.472e-42 2.99219e-40 2.07335e-40 -2.18419e-40 -1.8164548e-12 -4.0482e-41 4.14527e-40
-3.64687e-40 -3.276e-42 -1.25453e-40 1.59302e-40 3.75647e-40 9.356e-41 -2.6686e-41 -5.59548e-40
-1.58193e-40 -6.47906e-40 -2.10003e-40 -5.06314e-40 -4.04856e-40 3.8255e-41 -3.86163e-40 -1.869e-40
-1.53553e-40 -5.7825e-40 1.08822e-40 8.8058e-41 -3.83163e-40 3.62279e-40 9.3793e-41 3.32018e-40
-6.8029e-40 5.8766e-41 -1.1498658e-13 -4.144e-42 -3.73646e-40 -5.18494e-40 4.43931e-40 -2.2054e-40
1.1931e-40 -7.0288e-41 4.21721e-40 -3.10483e-40 -6.69769e-40 4.55034e-40 1.95094e-40 6.2138e-40
-5.00554e-40 -2.20326e-40 -4.38835e-40 -5.5355e-41 2.97957e-40 -1.026e-41 6.5107e-41 4.66582e-40
2.02427e-40 3.83695e-40 3.15229e-40 -1.7682e-40 -4.42344e-40 7.9166e-41 1.00351e-40 -5.3287e-40
1.45701e-40 1.13794e-40 4.45878e-40 -2.6916e-40 -2.2992e-40 5.7354e-41 6.29673e-40 2.00805e-40
-4.74659e-40 1.08226e-40 1.21701e-40 -3.32493e-40 -2.16538e-40 -4.5937e-41 -1.09698e-40 -6.52289e-40
-5.64289e-40 -4.25684e-40 3.31113e-40 3.6062948e-09 -2.37912e-40 1.5921697e-10 6.29e-42 5.47176e-40
4.1447e-40 -4.4987e-41 -1.08843e-40 5.99192e-40 1.0828735e-11 2.53974e-40 -6.18663e-40 -3.1243627e-13
00000000: d656 0600 5a5d 0080 1e19 0200 7a45 0200
00000010: a79a 0480 94c1 0380 260a 0400 c240 0200
00000020: f303 0380 90e2 0480 d8fd 0080 0fc0 0100
00000030: 1fc2 0480 b78d 0180 3ee3 0600 0caf 0300
00000040: 916f 0000 c964 0600 1d28 0280 0851 0080
00000050: e073 0400 ed4d 0180 af78 0680 7f4a 0700
00000060: 6e59 06aa 1587 0480 3440 0780 06c9 0100
00000070: cbdf 0080 39f0 0400 3caf 6437 a587 0200
00000080: e565 0200 c6bf 0280 a447 0500 953f 0480
00000090: 7cae 0680 8931 0680 7f94 0100 281c 0680
000000a0: 0f22 0100 2817 0200 13a6 0200 859b 0000
000000b0: fd99 0380 0ad4 0200 a00a 0080 9994 0480
000000c0: e21d 4faa ba27 0080 07f4 0580 6a38 0100
000000d0: 0914 0380 e25c 0680 28d8 0100 6e31 0300
000000e0: aad4 0380 3269 0200 b4e5 0600 21c3 0280
000000f0: 67a2 0680 8131 0100 58ab 0000 b6b9 c6a7
00000100: f37c 0100 abd5 0480 f21d 0080 dd06 0580
00000110: b74e c929 50f6 0080 a0e2 0100 675b 0080
00000120: 45fb 0280 56d0 0480 33f0 0000 dd75 0000
00000130: c903 0480 3a0f 0000 2b35 0480 9699 0100
00000140: 5820 0180 9136 0280 3199 0100 7022 0480
00000150: 0654 0000 f789 0580 7e2c 0480 92ed 0000
00000160: c253 0580 dea4 0180 afe3 0100 b95a 0380
00000170: fcae 0500 676b 0580 1b8e 0700 f468 e3b7
00000180: 0803 d833 3921 0380 4a0d 0600 d892 0400
00000190: a616 0000 826a 0680 6226 0680 00d5 0000
000001a0: 4a83 0100 9172 0180 0ae3 0480 222f 0400
000001b0: 4b90 0100 3a0c 0100 5a6c 0480 0c4f 0500
000001c0: 3abe 0180 194b 0500 959b 0200 878a 0000
000001d0: 0b60 0480 960a 0700 e004 0700 275d 0080
000001e0: 34ad 0400 2c20 0380 c50b 0500 37d3 0300
000001f0: f3ab 0300 8328 0080 6dad 0680 45bc 0000
00000200: 0771 0180 b0a3 0100 69f7 0200 02e5 0680
00000210: 78b1 0000 ac15 0080 90cf 0480 dd4a 0180
00000220: 7fc5 0280 cc24 0280 b1a5 0100 53d5 0300
00000230: 72d0 0100 1c3b 0280 f3a8 0000 fa46 0580
00000240: 6a4c 0500 deb6 0380 01ff 0000 35c5 0280
00000250: 1eb1 0380 6c0f 0000 91f1 0500 9b28 0400
00000260: 10d8 0580 7861 0200 c4a6 0580 8a40 0080
00000270: c0e2 0080 58b9 0080 ba94 0600 a692 0100
00000280: 7f18 0400 9e17 0000 1a42 0300 f741 0200
00000290: dd60 0280 aea4 ffab d970 0080 8883 0400
000002a0: 99f8 0380 2209 0080 b65d 0180 12bc 0100
000002b0: 2717 0400 cf04 0100 644a 0080 cb17 0680
000002c0: fab8 0180 190e 0780 6749 0280 6683 0580
000002d0: 9368 0480 a46a 0000 7734 0480 0009 0280
000002e0: 0bac 0180 ed4b 0680 5a2f 0100 78f5 0000
000002f0: 1a2c 0480 e3f1 0300 7505 0100 889d 0300
00000300: 5f68 0780 d1a3 0000 a076 01aa 8d0b 0080
00000310: 9311 0480 5aa5 0580 80d5 0400 c766 0280
00000320: 964c 0100 efc3 0080 9697 0400 8061 0380
00000330: 0b4b 0780 73f4 0400 d81f 0200 28c4 0600
00000340: 5773 0580 2e66 0280 4bc7 0480 4f9a 0080
00000350: 953e 0300 9a1c 0080 7eb5 0000 a414 0500
00000360: 4934 0200 962d 0400 bb6e 0300 e7ec 0180
00000370: 13d1 0480 afdc 0000 bd17 0100 6dcd 0580
00000380: 2896 0100 363d 0100 edda 0400 4fee 0280
00000390: ec80 0280 e19f 0000 46db 0600 c32f 0200
000003a0: 282b 0580 b12d 0100 4153 0100 db9e 0380
000003b0: 9f5b 0280 0e80 0080 cb31 0180 511a 0780
000003c0: 0225 0680 a2a2 0480 029b 0300 9cd2 7731
000003d0: 3497 0280 980f 2f2f 8911 0000 4ef5 0500
000003e0: 6083 0400 687d 0080 692f 0180 4e86 0600
000003f0: 4980 3e2d fac3 0200 95bc 0680 d0e2 afaa

bias f4 [14]
-3.9273e-41 -5.999e-40 -6.35433e-40 -2.24939e-40 6.93798e-40 -2.0535317e-11 -5.86127e-40 -3.63507e-40
-1.0966091e-23 -2.96226e-40 2.97063e-40 1.85027e-40 -1.07048e-40 -1.5637e-41
00000000: 7a6d 0080 4788 0680 54eb 0680 0a73 0280
00000010: 078e 0700 6ca1 b4ad e261 0680 4ff5 0380
00000020: 741d 5499 c239 0380 173c 0300 c803 0200
00000030: 682a 0180 972b 0080

weight f4 [28, 14, 3]
-6.94938e-40 -4.1849e-40 6.18341e-40 -3.67684e-40 -4.50679e-40 4.09983e-40 4.62597e-40 -6.34843e-40
5.73421e-40 -1.32138e-40 -4.33185e-40 2.2841e-40 1.32029e-40 -2.18366e-40 -4.48481e-40 3.2452e-40
-6.52391e-40 2.30668e-40 -3.4375e-41 3.82102e-40 5.5945e-41 2.1759e-40 -1.01409e-40 -1.92e-43
2.1437524e-12 -4.58033e-40 6.07058e-40 6.58113e-40 4.0328e-40 -4.30377e-40 -3.18609e-40 -4.4234e-40
5.23597e-40 -2.65463e-40 -5.81246e-40 -7.8547e-41 -3.937e-41 -1.11873e-40 4.64466e-40 -3.22639e-40
-9.9634e-41 -3.34636e-40 6.92e-40 4.1097e-40 -4.10405e-40 3.50521e-40 1.67199e-40 1.75979e-40
-5.95119e-40 1.64078e-40 2.92095e-40 -3.71516e-40 2.23097e-40 5.7263e-40 2.75623e-40 5.5421e-41
-5.02408e-40 1.10277e-40 1.68187e-40 -2.48393e-40 1.65334e-40 -3.14727e-40 -1.37668e-40 -9.327998e-12
3.9131e-40 -1.78483e-40 1.13766e-40 3.9243e-40 1.99316e-40 -2.15402e-40 9.638e-42 1.99779e-40
4.18388e-40 -1.50474e-40 4.7131e-40 2.4955e-40 -6.13404e-40 4.31048e-40 -3.55886e-40 -4.9195e-40
4.6068e-40 1.48913e-40 -5.6207e-41 3.03685e-11 -6.794e-41 -9.8852e-41 -5.1865345e-10 -4.89887e-40
3.17117e-40 -3.0089e-40 3.92865e-40 -2.19058e-40 -6.21744e-40 -6.66914e-40 -8.732506e-08 -5.2868e-40
-5.22824e-40 5.04128e-40 -4.92929e-40 -1.70472e-40 -5.39175e-40 -4.22747e-40 -6.11078e-40 2.71301e-40
-6.14652e-40 -2.9122e-40 1.6102622e-06 3.05161e-40 -1.3888e-41 4.01967e-40 -5.58265e-40 1.76274e-40
4.0911e-41 -5.64107e-40 2.11383e-40 1.60017e-40 4.49594e-40 9.762e-41 1.04541e-40 -1.38298e-40
2.81861e-40 -3.47355e-40 6.80947e-40 -2.33333e-40 1.20833e-40 4.9084e-40 -1.89577e-40 -8.984e-42
-1.73862e-40 9.1054e-41 -5.49243e-40 -1.55527e-40 -2.75137e-40 3.18417e-40 -3.65363e-40 -1.5643e-40
-6.16948e-40 3.097e-42 6.742e-40 -2.30364e-40 3.2666e-41 1.6355727e-07 -5.95612e-40 2.39076e-40
6.99843e-40 -3.56139e-40 -5.0674e-40 6.92142e-40 3.52144e-40 -4.47809e-40 -3.4443e-41 -4.12464e-40
-2.7539e-40 1.84383e-40 5.32894e-40 -9.778e-41 -4.74468e-40 -2.02712e-40 -3.56056e-40 5.1535e-40
4.79388e-40 -1.26543e-40 -9.6995e-41 -9.628e-41 4.72536e-40 -1.50843e-40 -2.42991e-40 6.7331e-41
3.9572e-40 -3.11943e-40 -5.88276e-40 -3.36555e-40 1.57346e-40 7.6016e-41 4.40376e-40 3.2556e-41
2.52835e-40 -4.11846e-40 6.19943e-40 6.32974e-40 5.65802e-40 -2.3329e-40 3.63898e-40 4.00448e-40
-7.3556e-41 5.7127e-41 -2.46089e-40 2.22252e-40 -3.24018e-40 -3.53085e-40 2.05395e-40 -1.85783e-40
9.481e-42 -4.21773e-40 -3.03556e-40 -2.87614e-40 -3.67709e-40 5.82447e-40 -7.0785376e-05 4.65516e-40
3.55165e-40 5.0183e-40 -5.5853e-40 3.25311e-40 -3.18899e-40 2.71251e-40 -2.33584e-40 4.8552e-41
4.27724e-40 6.69599e-40 -2.96697e-40 -6.48867e-40 5.56492e-40 2.09987e-40 4.29e-41 6.20572e-40
4.4832507e-09 -6.84662e-40 4.95035e-40 -5.70804e-40 6.8621e-40 2.83218e-40 -2.875e-41 3.53842e-40
6.33914e-40 -1.83047e-40 9.3325e-41 4.2741e-40 -1.2963e-41 -5.01351e-40 -2.07678e-40 -2.52091e-40
1.65408e-40 -2.9366063e-14 4.29181e-40 -5.38871e-40 3.97192e-40 -7.819e-42 -8.918e-42 -3.45965e-40
3.97854e-40 5.51035e-40 -2.09148e-40 1.5413781e-06 -6.34742e-40 -4.53536e-40 4.98766e-40 -1.81946e-40
-5.12895e-40 2.36678e-40 9.662939e-12 -1.5594e-40 -4.58635e-40 -6.05034e-40 -4.27228e-40 -4.16558e-40
00000000: 3491 0780 948e 0480 afbb 0600 f400 0480
00000010: 4fe8 0480 de76 0400 8809 0500 afe9 0680
00000020: 773e 0600 5970 0180 8bb7 0480 b77c 0200
00000030: 0b70 0100 b760 0280 2fe2 0480 a188 0300
00000040: 9a1a 0780 0283 0200 d35f 0080 2529 0400
00000050: f49b 0000 8d5e 0200 b01a 0180 8900 0080
00000060: 69da 162c cffc 0480 3b9c 0600 8d2a 0700
00000070: 2e64 0400 b7af 0480 2778 0380 10d1 0480
00000080: 93b3 0500 01e4 0280 4754 0680 f5da 0080
00000090: bf6d 0080 db37 0180 be0e 0500 6383 0380
000000a0: bd15 0180 d4a4 0380 0489 0700 9e79 0400
000000b0: 0b78 0480 1cd1 0300 15d2 0100 8fea 0100
000000c0: f37a 0680 62c9 0100 3e2e 0300 a30b 0480
000000d0: e76d 0200 423c 0600 5300 0300 7e9a 0000
000000e0: 8278 0580 6833 0100 d6d4 0100 6bb4 0280
000000f0: e2cc 0100 556d 0380 c37f 0180 9119 24ad
00000100: d042 0400 8af1 0180 223d 0100 ef45 0400
00000110: 9d2b 0200 7458 0280 de1a 0000 e72c 0200
00000120: 4c8e 0400 76a3 0180 d221 0500 a5b7 0200
00000130: ecad 0680 96b1 0400 11e0 0380 5b5b 0580
00000140: 3004 0500 1c9f 0100 af9c 0080 e48f 052e
00000150: 64bd 0080 8f13 0180 fe90 0eb0 9b55 0580
00000160: fe73 0300 c246 0380 2647 0400 a562 0280
00000170: 2bc5 0680 1643 0780 7687 bbb3 bfc1 0580
00000180: 6cb1 0580 4e7d 0500 165e 0580 35db 0180
00000190: 00df 0580 729a 0480 70a7 0680 47f4 0200
000001a0: 66b1 0680 ce2b 0380 3020 d835 aa52 0300
000001b0: b726 0080 8560 0400 3714 0680 61eb 0100
000001c0: 0b72 0000 8024 0680 404d 0200 10be 0100
000001d0: 49e5 0400 2010 0100 6b23 0100 8581 0180
000001e0: b711 0300 49c8 0380 346a 0700 708a 0280
000001f0: d550 0100 4358 0500 7710 0280 0b19 0080
00000200: a8e4 0180 d2fd 0000 11fb 0580 8cb1 0180
00000210: f8fe 0280 9e77 0300 7cfa 0380 10b4 0180
00000220: cdb7 0680 a208 0000 6557 0700 2982 0280
00000230: 0f5b 0000 489e 2f34 537c 0680 729a 0200
00000240: e19e 0700 c5e0 0380 9684 0580 6989 0700
00000250: a2d5 0300 4fe0 0480 0360 0080 c87d 0480
00000260: adff 0280 fc01 0200 7ecd 0500 9210 0180
00000270: a02a 0580 1435 0280 8ae0 0380 969c 0500
00000280: 5738 0500 c060 0180 620e 0180 640c 0180
00000290: 3d25 0500 7da4 0180 5ca5 0280 b1bb 0000
000002a0: 1b4f 0400 9265 0380 e067 0680 2eaa 0380
000002b0: 9eb6 0100 e7d3 0000 97cb 0400 c15a 0000
000002c0: cdc0 0200 0f7c 0480 26c0 0600 79e4 0600
000002d0: 3a29 0600 518a 0280 66f6 0300 495c 0400
000002e0: 0bcd 0080 3f9f 0000 ffad 0280 8c6b 0200
000002f0: 3b87 0380 42d8 0380 8f3c 0200 e305 0280
00000300: 6e1a 0000 bb97 0480 314e 0380 c021 0380
00000310: 0601 0480 a057 0600 9c72 94b8 ab11 0500
00000320: 0ede 0300 e676 0500 f414 0680 d68a 0300
00000330: f678 0380 23f4 0200 238b 0280 5887 0000
00000340: 52a8 0400 924a 0700 123b 0380 c710 0780
00000350: 460f 0600 5c49 0200 9677 0000 e7c1 0600
00000360: 170b 9a31 8f74 0780 f563 0500 2b37 0680
00000370: e078 0700 7f15 0300 2550 0080 5eda 0300
00000380: 18e7 0600 43fe 0180 2704 0100 72a7 0400
00000390: 2324 0080 9075 0580 ec42 0280 babe 0280
000003a0: 17cd 0100 c440 04a9 62ac 0400 27de 0580
000003b0: 3653 0400 cc15 0080 dc18 0080 69c4 0380
000003c0: 0e55 0400 1000 0600 0547 0280 59e1 ce35
000003d0: 67e9 0680 46f0 0480 5b6e 0500 31fb 0180
000003e0: be95 0580 c393 0200 02fe 292d b3b2 0180
000003f0: 7dfe 0480 9796 0680 f0a6 0480 3289 0480

bias f4 [28]
-4.39891e-40 3.68243e-40 3.45501e-40 1.47355e-40 -1.99685e-40 -5.93453e-40 -2.3449416e-14 -4.5760185e-05
-5.8224e-41 -1.47404e-40 -2.4874e-41 2.1002e-40 1.58958e-40 -6.6625e-41 -8.097224e-09 -5.877e-42
6.76858e-40 -1.22087e-40 -5.34185e-40 5.9372e-41 -6.8917e-41 -4.2271986e-13 6.9008e-41 5.7192e-40
4.11833e-40 1.38616e-40 4.45522e-40 -2.39416e-40
00000000: 3dca 0480 8302 0400 1ec3 0300 c49a 0100
00000010: a42c 0280 4e76 0680 ac36 d3a8 a0ee 3fb8
00000020: 4ea2 0080 e79a 0180 5745 0080 7349 0200
00000030: 1cbb 0100 b9b9 0080 f81b 0bb2 6210 0080
00000040: ce5e 0700 5454 0180 17d1 0580 81a5 0000
00000050: 1dc0 0080 5af8 edaa 5ec0 0000 483a 0600
00000060: 067c 0400 6882 0100 efd9 0400 659b 0280

weight f4 [28, 28, 3]
4.5427e-41 3.22365e-40 -2.75215e-40 -4.88525e-40 3.635e-42 4.49227e-40 3.7352e-41 4.0768e-41
-3.52865e-40 1.72347e-40 1.38165e-40 -6.35266e-40 -5.2380284e-07 1.08777e-40 2.80624e-40 4.02704e-40
3.3789e-40 -3.92109e-40 8.4547e-41 -4.846004e-05 -6.05934e-40 2.66392e-40 3.4740237e-09 3.3551e-41
-1.49423e-40 6.23236e-40 -2.3369e-40 -2.44444e-40 -5.931245e-14 5.44316e-40 3.4602556e-07 1.86158e-40
2.4641235e-05 5.58324e-40 -6.2977e-41 3.61203e-40 3.26186e-40 2.73982e-40 5.88136e-40 1.44914e-40
-1.0636338e-08 3.46676e-40 5.8675e-41 2.550048e-07 -7.020645e-13 3.1847e-41 3.98088e-40 2.3325e-41
-3.03775e-40 3.79547e-40 -2.99694e-40 5.93116e-40 5.7788e-41 2.77096e-40 6.53184e-40 8.1228e-41
-4.16956e-40 -5.52638e-40 4.88193e-40 -2.65899e-40 -7.4405295e-07 -3.666e-42 3.07121e-40 -6.24798e-40
1.1600658e-05 -2.2418465e-12 3.991095e-09 -4.48055e-40 2.07806e-40 9.541804e-09 -1.20028e-40 -3.00709e-40
-6.87976e-40 3.4311e-41 6.45546e-40 -4.8748787e-13 4.82096e-40 8.7926e-41 -1.58104e-40 -1.57677e-40
3.99751e-40 -6.01551e-40 -5.7428e-41 1.9178e-40 -2.82872e-40 5.52814e-40 -1.05556e-40 -5.0933124e-10
-4.94716e-40 -2.4801e-40 8.4707e-41 6.58306e-40 -1.5952503e-11 -4.81043e-40 -4.35453e-40 -2.66855e-40
5.8305e-41 3.98196e-40 -1.8504553e-10 4.05233e-40 1.66111e-40 -2.85164e-40 4.599e-41 -4.86842e-40
-3.46695e-40 -4.25308e-40 -5.56873e-40 -4.2969e-40 4.93435e-40 -1.97144e-40 6.4698e-41 2.60057e-40
-1.5396e-40 -5.2998e-40 1.5296733e-05 -2.5885e-40 -6.86199e-40 3.20718e-40 -2.6989e-41 -5.04934e-40
-2.20199e-40 6.5233e-41 4.777866e-05 -4.867e-40 7.4088e-41 3.9667e-41 1.5837e-40 7.00618e-40
2.874156e-13 5.35604e-40 5.93474e-40 2.59309e-40 6.12023e-40 -3.4933e-40 -3.52743e-40 -2.52622e-40
-3.23002e-40 4.112933e-06 2.12413e-40 -4.0552e-41 1.45865e-40 2.9562e-41 2.54095e-40 3.05274e-40
2.726e-41 -6.30867e-40 -6.84192e-40 -2.5269828e-11 -4.93293e-40 -3.71163e-40 -5.78326e-40 4.48448e-40
2.3358e-40 -7.9124e-41 -6.0463e-40 5.9594e-41 3.73843e-40 3.28306e-40 1.18803e-40 -3.35332e-40
-4.40211e-40 -5.201e-41 2.44457e-40 -1.5538e-41 2.29327e-40 -2.87594e-40 -2.32925e-40 1.973123e-11
4.69651e-40 -5.57662e-40 4.9049e-40 2.61053e-40 -6.9441e-41 5.4759e-40 1.11592e-40 1.2223e-40
5.44445e-40 -4.28883e-40 6.8261e-41 -6.83998e-40 -3.14443e-40 3.05067e-40 -4.62685e-40 -1.39513e-40
-1.83172e-40 -4.8053e-40 -2.4695187e-06 -8.2797e-41 1.5630277e-12 -4.58285e-40 -2.57322e-40 6.76359e-40
-1.90047e-40 -1.67663e-40 3.53284e-40 -7.591584e-13 -6.96294e-40 4.42712e-40 -2.7189628e-09 1.92035e-40
-3.457e-42 5.05523e-40 -2.19469e-40 3.89368e-40 -6.71703e-40 5.45048e-40 -2.54071e-40 4.44496e-40
7.9144e-41 6.91049e-40 3.44564e-40 -5.34115e-40 6.8939e-40 -2.3092e-40 1.3474e-40 1.56954e-40
-1.77323e-40 6.2246e-40 -2.042e-41 3.75387e-40 2.75274e-40 -4.48462e-40 -6.28115e-40 -2.91354e-40
5.01647e-40 -3.8964e-40 6.72971e-40 2.83965e-40 5.46169e-40 -6.6967e-41 5.38994e-40 3.5451052e-07
4.05551e-40 -2.08506e-40 8.2197e-41 5.65662e-40 -3.39603e-40 -3.00049e-40 3.15996e-40 -9.558512e-06
-6.68345e-40 -9.2127e-41 -6.07096e-40 2.0314e-40 3.7318e-40 4.50105e-40 4.27432e-40 -3.75328e-40
2.39672e-40 2.0715678e-08 -4.70088e-40 -4.68478e-40 4.68621e-40 8.3124e-41 -1.97591e-40 3.16172e-40
00000000: a27e 0000 9f82 0300 30ff 0280 cf51 0580
00000010: 220a 0000 43e4 0400 1f68 0000 a571 0000
00000020: a5d7 0380 6fe0 0100 2681 0100 ddea 0680
00000030: 759b 0cb5 3a2f 0100 440e 0300 9362 0400
00000040: e6ad 0300 0a45 0480 afeb 0000 9241 4bb8
00000050: 1999 0680 98e6 0200 acbb 6e31 875d 0000
00000060: 88a0 0180 54c9 0600 6f8b 0280 69a9 0280
00000070: 4d8f 85a9 55ed 0500 64c5 b934 ef06 0200
00000080: a6b4 ce37 6114 0600 8eaf 0080 e3ee 0300
00000090: 468d 0300 c0fb 0200 7c67 0600 f693 0100
000000a0: 1cbb 36b2 64c6 0300 90a3 0000 98e7 8834
000000b0: 149d 45ab c758 0000 b555 0400 0541 0000
000000c0: cd4e 0380 0622 0400 6d43 0380 5e75 0600
000000d0: 17a1 0000 6e04 0300 d01c 0700 6ee2 0000
000000e0: 4e8a 0480 8804 0680 e250 0500 38e5 0280
000000f0: eeba 47b5 380a 0080 2158 0300 afcd 0680
00000100: 72a0 4237 84c1 1dac 0b22 8931 ffe0 0480
00000110: 4743 0200 4ced 2332 974e 0180 4146 0380
00000120: cc7d 0780 a55f 0000 8507 0700 3437 09ab
00000130: e33f 0500 1af5 0000 bbb8 0180 8ab7 0180
00000140: 585a 0400 e18c 0680 16a0 0080 9b16 0200
00000150: 8814 0380 0505 0600 3f26 0180 0001 0cb0
00000160: 1163 0580 5ab3 0280 21ec 0000 172b 0700
00000170: d851 8cad f43c 0580 debd 0480 e2e7 0280
00000180: 88a2 0000 0256 0400 b075 4baf a069 0400
00000190: 0dcf 0100 ec1a 0380 3480 0000 1e4d 0580
000001a0: 72c6 0380 96a1 0480 5610 0680 cdad 0480
000001b0: 7f5f 0500 8f25 0280 5ab4 0000 efd4 0200
000001c0: 2ead 0180 5ec5 0580 7c51 8037 92d1 0280
000001d0: d878 0780 087e 0300 3c4b 0080 8d7f 0580
000001e0: d365 0280 d8b5 0000 f265 4838 b94c 0580
000001f0: 87ce 0000 936e 0000 79b9 0100 0aa1 0700
00000200: f4cc a12a 0cd5 0500 5d76 0600 d9d2 0200
00000210: 12aa 0600 cacd 0380 4ed7 0380 35c0 0280
00000220: 6684 0380 d301 8a36 1f50 0200 0b71 0080
00000230: 9d96 0100 6852 0000 50c4 0200 fb52 0300
00000240: fd4b 0000 9ade 0680 4073 0780 9846 dead
00000250: 1a5f 0580 a70a 0480 234c 0680 17e2 0400
00000260: 208b 0200 91dc 0080 7695 0680 20a6 0000
00000270: 1f12 0400 2f93 0300 2d4b 0100 c5a6 0380
00000280: 21cb 0480 fc90 0080 72a9 0200 502b 0080
00000290: 457f 0200 b221 0380 4d89 0280 c88e ad2d
000002a0: 321d 0500 8912 0680 4957 0500 b6d7 0200
000002b0: 93c1 0080 75f6 0500 1337 0100 ba54 0100
000002c0: b1ed 0500 8dab 0480 49be 0000 b572 0780
000002d0: 8a6c 0380 6752 0300 c709 0580 e884 0180
000002e0: 9cfe 0180 863b 0580 02ba 25b6 cee6 0080
000002f0: 02fa db2b 83fd 0480 4fcd 0280 6a5d 0700
00000300: c611 0280 60d3 0180 d0d8 0300 21af 55ab
00000310: fc94 0780 1ad2 0400 80d8 3ab1 5117 0200
00000320: a309 0080 3181 0500 ca63 0280 663d 0400
00000330: 6f50 0780 5fef 0500 3fc4 0280 13d7 0400
00000340: 9fdc 0000 5d86 0700 81c0 0300 e5d0 0580
00000350: bd81 0700 b683 0280 9a77 0100 86b5 0100
00000360: 4eee 0180 2ac7 0600 ec38 0080 6d16 0400
00000370: 5aff 0200 21e2 0480 eed6 0680 2d2c 0380
00000380: 6376 0500 283e 0480 f853 0700 9417 0300
00000390: 7ff2 0500 adba 0080 7fde 0500 8e53 be34
000003a0: 836a 0400 3b45 0280 22e5 0000 d628 0600
000003b0: adb2 0380 6a44 0380 de70 0300 7f5d 20b7
000003c0: 1347 0780 d000 0180 569c 0680 4636 0200
000003d0: 4610 0400 b6e6 0400 82a7 0400 4316 0480
000003e0: 1c9c 0200 42f2 b132 6a1e 0580 ed19 0580
000003f0: 531a 0500 b7e7 0000 ce26 0280 5c71 0300

bias f4 [28]
-9.52012e-21 -1.59237e-40 1.96103e-40 3.6894692e-20 2.37129e-40 -4.40907e-40 4.71489e-40 3.87704e-40
4.02122e-40 1.11108e-40 1.96271e-40 1.66278e-40 -4.4634275e-22 1.1296856e-12 -4.59273e-40 -1.98593e-40
-2.31552e-40 1.770537e-30 3.265e-40 -2.3543e-40 -1.6147189e-21 -2.28087e-40 9.231933e-16 -2.2672938e-12
1.56236e-40 -3.1064302e-30 -1.7332786e-07 -1.39624e-40
00000000: 7ad4 339e e3bb 0180 a822 0200 f23a 2e1f
00000010: 0595 0200 12cd 0480 5222 0500 c338 0400
00000020: f460 0400 b935 0100 2023 0200 84cf 0100
00000030: 19e6 069c 37fd 9e2b 4400 0580 9929 0280
00000040: 7985 0280 9da4 0f0e 268e 0300 4890 0280
00000050: 6902 f49c d07b 0280 d20b 8526 ef8b 1fac
00000060: 86b3 0100 0806 7c8e 001c 3ab4 3785 0180

weight f4 [4, 28]
-3.52502e-40 2.71818e-40 -3.66242e-40 2.22515e-40 -2.136e-40 1.67686e-40 4.2454e-40 -3.53402e-40
1.3643e-40 -5.93247e-40 5.64114e-40 -6.7133e-41 -5.4781e-41 2.67246e-40 1.97921e-40 3.0417e-41
-4.3266e-40 3.1104e-40 -2.69893e-40 2.0514e-41 -6.12338e-40 4.20768e-40 -3.62206e-40 1.75277e-40
2.19455e-40 6.56808e-40 -5.53855e-40 5.92378e-40 -1.50456e-40 4.0313e-41 -1.165e-41 5.29713e-40
2.19942e-40 -1.79669e-40 -3.0345e-40 9.9777e-41 1.43164e-40 3.01316e-40 9.099e-41 6.2683e-40
-6.57971e-40 -2.36077e-40 -6.18547e-40 -3.6727e-41 -6.0693e-41 1.77085e-40 5.12189e-40 5.77807e-40
6.20904e-40 9.7791e-41 1.62815e-40 -4.96636e-40 -4.84439e-40 -2.59686e-40 4.3902e-40 6.16065e-40
2.7123633e-07 2.86985e-40 -1.424e-40 1.3203402e-20 -3.7148e-41 -1.06436e-40 2.63541e-40 -2.56194e-40
-1.77875e-40 -3.09023e-40 4.30993e-40 1.48211e-40 0.00010270768 7.3234426e-16 -6.71644e-40 -2.6958e-41
-1.3358e-40 -4.6197013e-16 1.73802e-40 4.14095e-40 1.3814287e-07 -5.6824e-40 1.0028137e-13 -5.54569e-16
4.35723e-40 -2.4990047e-15 1.6678611e-16 8.049e-42 -6.01757e-40 -5.3139e-41 -7.509e-41 1.78265e-40
1.20828e-40 -4.85571e-40 -2.18273e-40 -4.2775e-41 7.5973e-41 -5.44888e-40 4.4382e-41 4.41815e-40
-6.36966e-40 -2.27075e-40 -3.0681e-41 1.642e-41 -8.6015e-41 -6.27975e-40 -2.02862e-40 2.52625e-40
5.536e-40 -2.9302e-40 -3.54377e-40 -6.57788e-40 -7.571e-41 -4.42617e-40 -3.18885e-40 4.3601e-41
00000000: a2d6 0380 b8f5 0200 effc 0380 486c 0200
00000010: 6e53 0280 71d3 0100 729f 0400 24d9 0380
00000020: 507c 0100 bb75 0680 8524 0600 24bb 0080
00000030: b598 0080 f9e8 0200 b927 0200 ca54 0000
00000040: 14b6 0480 0e63 0300 5af0 0280 2f39 0000
00000050: f3aa 0680 ee94 0400 aff1 0380 9ae8 0100
00000060: c063 0200 ea26 0700 ec07 0680 4f73 0600
00000070: 69a3 0180 6070 0000 7a20 0080 a0c4 0500
00000080: 1c65 0200 d8f4 0180 e54d 0380 2316 0100
00000090: 158f 0100 f247 0300 a5fd 0000 59d3 0600
000000a0: 282a 0780 1692 0280 42bc 0680 6166 0080
000000b0: 30a9 0080 a4ed 0100 c693 0500 b14a 0600
000000c0: d4c2 0600 9a10 0100 ddc5 0100 6b68 0580
000000d0: 6b46 0580 e6d3 0280 cfc7 0400 57b5 0600
000000e0: 709e 9134 ff1f 0300 f48c 0180 bc67 791e
000000f0: 8e67 0080 b328 0180 a5de 0200 2aca 0280
00000100: d8ef 0180 6e5d 0380 6fb1 0400 279d 0100
00000110: c464 d738 7815 5326 4550 0780 264b 0080
00000120: 5e74 0180 6127 05a6 7de4 0100 5482 0400
00000130: 6c54 1434 0630 0680 46d0 e129 f8d7 1fa6
00000140: 9ebe 0400 8012 34a7 924a 4025 7016 0000
00000150: 748d 0680 2194 0080 52d1 0080 eef0 0100
00000160: d250 0100 9349 0580 7560 0280 3d77 0080
00000170: c8d3 0000 edee 0580 b87b 0000 9acf 0400
00000180: 9aef 0680 fe78 0280 8755 0080 c62d 0000
00000190: c6ef 0080 8ad6 0680 7f35 0280 37c0 0200
000001a0: 3607 0600 d230 0380 dcdb 0380 a529 0780
000001b0: 0cd3 0080 d6d1 0480 ec78 0380 8b79 0000

bias f4 [4]
-1.99335e-40 -8.7852e-41 2.0321126e-17 -1.36367e-40
00000000: aa2b 0280 e5f4 0080 e76d bb23 237c 0180

in_proj_weight f4 [21, 7]
9.6173e-41 -1.1807e-40 -8.5056e-41 4.6795e-41 -3.52387e-40 1.58948e-40 3.619e-40 6.105e-41
-2.90774e-40 -1.34008e-40 1.7753e-40 -4.14887e-40 -2.0393e-41 5.5004e-41 5.4361e-40 -1.78347e-40
6.2755e-40 5.38442e-40 2.25652e-40 -7.04054e-40 -5.02567e-40 -1.94511e-40 -1.12425e-40 -6.18693e-40
-1.27447e-40 -1.72346e-40 -3.58898e-40 6.2135e-40 -3.3716e-40 -3.59186e-40 4.43903e-40 1.76087e-40
2.81473e-40 4.07625e-40 3.15259e-40 -4.05565e-40 1.20943e-40 3.5023e-41 1.42832e-40 -1.37942e-40
-5.84117e-40 -3.17538e-40 2.00411e-40 -5.3067e-41 -6.1205e-40 9.5535e-41 -4.5381e-41 -5.6262e-41
3.9211e-41 -4.52022e-40 -4.1561e-41 -2.74e-40 1.58487e-40 1.62227e-40 2.01046e-40 -1.02138e-40
-5.92902e-40 4.96453e-40 3.29651e-40 -7.8547e-41 -2.01158e-40 3.81241e-40 1.5033e-41 7.634e-41
4.79049e-40 -1.65625e-40 5.25553e-40 5.50465e-40 4.11557e-40 -5.67843e-40 -3.79329e-40 2.4639e-41
-4.33412e-40 5.3275e-40 -1.2575e-41 2.53103e-40 -2.8858e-41 -1.17618e-40 5.084e-41 -2.12835e-40
1.92466e-40 1.00578e-40 2.9738e-41 -1.14496e-40 -1.28278e-40 -2.59417e-40 5.6223e-41 -3.83449e-40
-1.66142e-40 4.69061e-40 -5.06974e-40 3.83e-40 -1.0693e-40 -5.55412e-40 -7.1451e-41 -3.69521e-40
-2.34724e-40 -6.02885e-40 -5.0536e-41 -3.4624e-40 6.6115e-40 -3.6994e-41 2.487e-41 -2.75623e-40
2.2605e-40 1.17793e-40 1.96231e-40 -1.99688e-40 -1.24908e-40 -1.66156e-40 6.06499e-40 -1.42302e-40
-2.21875e-40 -1.25495e-40 -2.84651e-40 -1.458e-41 2.74202e-40 -5.92452e-40 -1.62056e-40 4.11399e-40
8.488e-41 -5.278e-41 -1.8242e-41 -3.46147e-40 -2.06839e-40 4.87369e-40 -1.67927e-40 -1.61867e-40
3.94802e-40 4.7939e-40 -4.13963e-40 2.29562e-40 3.35761e-40 3.27377e-40 -1.62143e-40 4.35414e-40
-4.74192e-40 2.4334e-41 -4.8243e-41 1.03503e-40 -1.79693e-40 6.01376e-40 4.3935e-41 1.16804e-40
-2.66873e-40 -1.37889e-40 6.254e-42
00000000: 170c 0100 2249 0180 1aed 0080 7282 0000
00000010: 50d6 0380 15bb 0100 d4f0 0300 2faa 0000
00000020: 8f2a 0380 8f75 0180 e2ee 0100 8984 0480
00000030: d938 0080 5499 0000 5deb 0500 29f1 0180
00000040: 5bd5 0600 f5dc 0500 0775 0200 9eaa 0780
00000050: f478 0580 381e 0280 6539 0180 aabc 0680
00000060: 4563 0180 6ee0 0180 76e8 0380 12c4 0600
00000070: ddab 0380 44e9 0380 6cd5 0400 dcea 0100
00000080: a210 0300 4b70 0400 d06e 0300 8d6a 0480
00000090: 2451 0100 a161 0000 288e 0100 8780 0180
000000a0: 485c 0680 2b75 0380 aa2e 0200 ee93 0080
000000b0: 25aa 0680 500a 0100 817e 0080 d69c 0080
000000c0: 4e6d 0000 0eec 0480 db73 0080 cdfb 0280
000000d0: ccb9 0100 39c4 0100 6f30 0200 b81c 0180
000000e0: c574 0680 e967 0500 ef96 0300 f5da 0080
000000f0: bf30 0280 bf26 0400 e829 0000 ced4 0000
00000100: 6537 0500 b2cd 0180 07b9 0500 79fe 0500
00000110: 417b 0400 ea2e 0680 6a21 0480 af44 0000
00000120: 2db8 0480 17cd 0500 0e23 0080 8cc1 0200
00000130: 7250 0080 df47 0180 b98d 0000 4c51 0280
00000140: 8418 0200 5f18 0100 e652 0000 2b3f 0180
00000150: 9665 0180 26d3 0280 ba9c 0000 e62c 0480
00000160: 23cf 0180 8d1b 0500 3d85 0580 a62b 0400
00000170: 142a 0180 430c 0680 2dc7 0080 1306 0480
00000180: 518e 0280 9990 0680 e08c 0080 2dc5 0380
00000190: 0433 0700 2067 0080 5445 0000 5300 0380
000001a0: 2376 0200 5c48 0100 0323 0200 a62c 0280
000001b0: 315c 0180 2dcf 0180 ac9a 0600 ae8c 0180
000001c0: 7f6a 0280 d45d 0180 7e19 0380 a528 0080
000001d0: 5dfc 0200 8473 0680 bfc3 0180 d07a 0400
000001e0: 9cec 0000 2193 0080 da32 0080 ebc4 0380
000001f0: 9540 0280 964e 0500 1dd4 0180 38c3 0180
00000200: 8c4c 0400 5838 0500 f681 0480 ed7f 0200
00000210: f7a7 0300 9890 0300 fdc3 0180 c2bd 0400
00000220: db29 0580 d543 0000 7b86 0080 8620 0100
00000230: e9f4 0180 648c 0600 797a 0000 9a45 0100
00000240: efe7 0280 6180 0180 6f11 0000

in_proj_bias f4 [21]
-2.34559e-40 -2.04112e-40 4.78384e-40 1.614e-40 -2.9501e-40 3.44435e-40 -4.63638e-40 3.9371084e-08
7.479609e-14 -1.0945163e-10 -1.9751934e-07 -6.8549474e-13 -1.991073e-05 2.691198e-13 3.55792e-40 2.38382e-40
-6.02096e-40 2.12796e-40 3.6092e-41 5.3371e-41 8.6827e-41
00000000: db8d 0280 fb38 0280 8a35 0500 ebc1 0100
00000010: 5e36 0380 25c0 0300 6f0c 0580 f718 2933
00000020: 036d a829 caaf f0ae b415 54b4 1af3 40ab
00000030: f805 a7b7 4080 972a cedf 0300 8398 0200
00000040: 668e 0680 3051 0200 9c64 0000 c794 0000
00000050: 0af2 0000

weight f4 [7, 7]
8.0023e-41 3.58236e-40 -6.05762e-40 3.3778e-41 -3.62701e-40 -2.01493e-40 -1.6089e-40 -2.03267e-40
8.901e-41 6.7126e-41 -5.9589e-41 -1.84544e-40 1.23059e-40 -1.59546e-40 4.38325e-40 -4.82537e-40
4.85682e-40 3.44775e-40 -2.08369e-40 -3.47837e-40 4.54878e-40 4.12685e-40 -1.61118e-40 -1.1093e-40
-2.67925e-40 -6.26792e-40 6.77588e-40 -1.0041e-40 -3.10378e-40 4.26495e-40 5.6273e-41 5.25581e-40
-1.05655e-40 -1.44297e-40 5.93879e-40 1.67133e-40 -3.75984e-40 2.54565e-40 2.971e-42 -3.4773e-41
5.498e-41 -1.83496e-40 5.4687e-41 -3.48102e-40 -5.36765e-40 -2.05268e-40 3.08412e-40 -3.25362e-40
-5.83517e-40
00000000: 12df 0000 9ee6 0300 9e98 0680 295e 0000
00000010: 10f3 0380 ae31 0280 7fc0 0180 a036 0280
00000020: 20f8 0000 1fbb 0000 1ca6 0080 6f02 0280
00000030: 0a57 0100 c0bc 0180 dfc5 0400 1e41 0580
00000040: e249 0500 18c1 0300 d944 0280 a1c9 0380
00000050: 04f4 0400 667e 0400 22c1 0180 3a35 0180
00000060: deea 0280 3ed3 0680 d760 0700 e717 0180
00000070: 3561 0380 e5a4 0400 de9c 0000 1bb9 0500
00000080: 8626 0180 3e92 0180 7e77 0600 e6d1 0100
00000090: 1718 0480 a0c5 0200 4808 0000 ef60 0080
000000a0: 4399 0000 83ff 0180 7298 0000 5eca 0380
000000b0: 48d8 0580 343c 0280 ba5b 0300 fa8a 0380
000000c0: 9c5a 0680

bias f4 [7]
-1.28187e-40 -8.1983e-41 -5.75513e-40 2.89109e-40 1.8367e-40 -1.42668e-40 -5.7138e-41
00000000: 5565 0180 89e4 0080 4c44 0680 eb25 0300
00000010: ffff 0100 b38d 0180 479f 0080

weight f4 [7]
-4.788e-42 -5.2249e-41 -5.9768e-41 -3.1067e-41 -3.6542e-41 -1.247e-41 -6.8039e-41
00000000: 590d 0080 a691 0080 9ca6 0080 9a56 0080
00000010: dd65 0080 c322 0080 aabd 0080

bias f4 [7]
2.77288e-40 -1.60557e-40 -5.0526e-40 -3.57463e-40 1.09556e-40 3.9353e-41 6.24361e-40
00000000: f704 0300 91bf 0180 7680 0580 76e4 0380
00000010: 6631 0100 b36d 0000 77cc 0600

weight f4 [4]
1.0 1.0 1.0 1.0
00000000: 0000 803f 0000 803f 0000 803f 0000 803f

bias f4 [4]
0.0 0.0 0.0 0.0
00000000: 0000 0000 0000 0000 0000 0000 0000 0000

weight_ih_l0 f4 [16, 4]
-0.018084776 -0.34307244 -0.63465744 0.77208865 0.019911442 -0.63526595 0.48746362 -0.111785814
-0.2866755 -0.2069334 -0.15524928 -0.15274449 -0.01354874 -0.025768809 -0.12923098 -0.059050873
-0.10315297 -0.07294527 -0.22551939 -0.24964409 -0.12842354 -0.16946176 -0.019558467 -0.11739209
0.105191715 0.018807065 0.088160515 0.039764527 -0.047229037 -0.19801472 0.14566112 0.109506935
1.3191092 -0.25919318 0.102328494 -0.72228384 -0.39010513 1.0335416 -0.88813615 -0.514893
0.259308 0.191004 0.1405098 0.14207059 0.25859392 0.49209407 -0.45410916 -0.26288188
0.12101047 -0.26636928 -0.3307187 -0.35242295 -0.21690257 -0.18891251 -0.069120586 -0.2640686
-0.301604 -0.26544884 -0.14081049 -0.1631836 0.010768386 -0.07275549 -0.09318083 -0.09978586
00000000: 8626 94bc 31a7 afbe e978 22bf 9aa7 453f
00000010: 521d a33c caa0 22bf d594 f93e f6ef e4bd
00000020: 22c7 92be 59e6 53be abf9 1ebe 0d69 1cbe
00000030: 89fb 5dbc 1c19 d3bc 2055 04be 54df 71bd
00000040: dd41 d3bd 5464 95bd 8eee 66be b3a2 7fbe
00000050: 7681 03be 6287 2dbe 1439 a0bc 446b f0bd
00000060: c16e d73d 4611 9a3c 808d b43d 21e0 223d
00000070: 3c73 41bd 5fc4 4abe 3028 153e 2c45 e03d
00000080: 92d8 a83f f8b4 84be 9a91 d13d 98e7 38bf
00000090: dcbb c7be 174b 843f e45c 63bf 07d0 03bf
000000a0: 05c4 843e 8d96 433e cde1 0f3e f47a 113e
000000b0: 6c66 843e c1f3 fb3e ff80 e8be 7498 86be
000000c0: 56d4 f73d 8e61 88be f653 a9be c870 b4be
000000d0: b51b 5ebe 4872 41be 188f 8dbd 0034 87be
000000e0: d76b 9abe e9e8 87be a030 10be 9a19 27be
000000f0: e26d 303c d500 95bd 97d5 bebd 875c ccbd
