src/temp_model.pt (torch, 34165 bytes, 88 tensors)

encoder.lstm1.weight_ih_l0 f4 [8, 7]
0.05797644 0.032026272 0.028736174 0.06353795 0.035253234 0.037554555 0.027296374 0.01930713
0.027133241 0.024688564 0.022621287 0.024923233 0.02670582 0.02154653 0.024659187 0.013128068
0.01244553 0.026276475 0.016079273 0.015419857 0.012902186 0.009056435 0.01272009 0.010097861
0.010103619 0.011077979 0.011922946 0.0095146345 -0.037859287 -0.16919929 -0.12974733 -0.055445097
0.008220846 -0.06920527 -0.16061015 0.02371721 0.08802884 0.08592488 0.035592027 0.07506231
0.080315515 0.06565834 0.058825828 0.03097434 0.030156052 0.0652004 0.036516655 0.03670674
0.029208489 0.021051412 0.030165903 0.026018374 0.02514008 0.026928904 0.029139983 0.023206381
00000000: b478 6d3d fb2d 033d 2068 eb3c 2f20 823d
00000010: b265 103d ced2 193d a59c df3c fc29 9e3c
00000020: 8846 de3c ac3f ca3c 4750 b93c cf2b cc3c
00000030: 2ac6 da3c 5982 b03c 1002 ca3c 1c17 573c
00000040: 56e8 4b3c c341 d73c aeb8 833c 91a3 7c3c
00000050: b163 533c 7161 143c ed67 503c 8071 253c
00000060: a689 253c 6980 353c 7658 433c 45e3 1b3c
00000070: 5712 1bbd 9442 2dbe 7cdc 04be 661a 63bd
00000080: bab0 063c 7ebb 8dbd fd76 24be 984a c23c
00000090: 7748 b43d 62f9 af3d f2c8 113d 45ba 993d
000000a0: 767c a43d e177 863d 5af3 703d e6bd fd3c
000000b0: d309 f73c ca87 853d 7d92 153d ce59 163d
000000c0: a446 ef3c 0374 ac3c 7c1e f73c 7c24 d53c
000000d0: 92f2 cd3c 019a dc3c f9b6 ee3c 4f1b be3c

encoder.lstm1.weight_hh_l0 f4 [8, 2]
0.006857153 0.0039415704 -0.0015357968 0.0028013412 0.005218523 0.0026782253 -0.0011533068 0.0019337022
0.045287665 -0.012180012 -0.013917143 0.007592521 0.009775095 0.0051284297 -0.0020989391 0.003913782
00000000: f8b1 e03b 4a28 813b ca4c c9ba b596 373b
00000010: 2500 ab3b 2a85 2f3b 8e2a 97ba 4774 fd3a
00000020: 8f7f 393d ac8e 47bc bb04 64bc afca f83b
00000030: b827 203c 630c a83b 5b8e 09bb 2f3f 803b

encoder.lstm1.bias_ih_l0 f4 [8]
0.09124978 0.01846061 0.03753911 0.008037529 0.27137703 -0.013018118 0.09562182 0.02022399
00000000: 2ae1 ba3d b53a 973c 9cc2 193d d7af 033c
00000010: eef1 8a3e f249 55bc 5fd5 c33d c8ac a53c

encoder.lstm1.bias_hh_l0 f4 [8]
0.091249794 0.018460609 0.03753911 0.008037529 0.2713771 -0.013018112 0.09562181 0.020223986
00000000: 2ce1 ba3d b43a 973c 9cc2 193d d7af 033c
00000010: f0f1 8a3e eb49 55bc 5ed5 c33d c6ac a53c

encoder.lstm1.weight_ih_l0_reverse f4 [8, 7]
0.022654483 0.0102839265 0.011719072 0.026888179 0.013356884 0.01337598 0.011499932 0.090574004
0.14947093 0.13189927 0.12151896 0.13083051 0.14364651 0.10895247 0.008724531 0.0054872558
0.0053926148 0.011003504 0.005545589 0.0062153535 0.0043757022 0.041475058 0.06882374 0.07603078
0.058896285 0.063416824 0.068736225 0.05141881 0.03114639 -0.09698604 -0.08085853 0.008451722
-0.07148399 -0.07817376 -0.06741218 0.08292617 0.26966622 0.24280614 -0.023361692 0.028460516
0.31796578 0.15117179 0.024036504 0.012020977 0.011942735 0.028413644 0.013870173 0.014537275
0.011535153 0.12833773 0.1742946 0.17047188 0.15356578 0.16303247 0.1750014 0.1416424
00000000: e595 b93c ea7d 283c 5a01 403c 9944 dc3c
00000010: d5d6 5a3c ed26 5b3c 366a 3c3c dd7e b93d
00000020: e80e 193e 9a10 073e efde f83d 6ff8 053e
00000030: 1218 133e 7922 df3d 56f1 0e3c 70ce b33b
00000040: 88b4 b03b 0a48 343c c6b7 b53b 2aaa cb3b
00000050: 0d62 8f3b c0e1 293d 76f3 8c3d 07b6 9b3d
00000060: 3b3d 713d aee0 813d 94c5 8c3d 889c 523d
00000070: b726 ff3c 9ea0 c6bd 2899 a5bd 1779 0a3c
00000080: 3366 92bd 9019 a0bd 660f 8abd 32d5 a93d
00000090: b111 8a3e 2ca2 783e 0561 bfbc 0726 e93c
000000a0: 69cc a23e c7cc 1a3e 34e8 c43c a2f3 443c
000000b0: 76ab 433c bbc3 e83c b93f 633c c02d 6e3c
000000c0: f0fd 3c3c f76a 033e 497a 323e 2e90 2e3e
000000d0: 5940 1d3e fcf1 263e 9133 333e b50a 113e

encoder.lstm1.weight_hh_l0_reverse f4 [8, 2]
0.0022565273 0.0013965766 -0.0037701016 0.026758851 0.001793606 0.0009745419 -0.0028062349 0.030560767
0.0154418275 -0.029190123 -0.025940217 0.025981247 0.00309607 0.0019121808 -0.004707612 0.056017995
00000000: 3fe2 133b 560d b73a cf13 77bb 6135 db3c
00000010: 6e17 eb3a 6678 7f3a cfe8 37bb 935a fa3c
00000020: b8ff 7c3c 2020 efbc 9480 d4bc a0d6 d43c
00000030: 6fe7 4a3b 24a2 fa3a 5042 9abb 2073 653d

encoder.lstm1.bias_ih_l0_reverse f4 [8]
0.039421856 0.08610678 0.014600134 0.04639251 0.16853637 -0.12799008 0.040256847 0.12388079
00000000: d078 213d c058 b03d 6735 6f3c 1306 3e3d
00000010: cc94 2c3e d50f 03be 5de4 243d 36b5 fd3d

encoder.lstm1.bias_hh_l0_reverse f4 [8]
0.039421853 0.086106785 0.014600134 0.046392515 0.16853637 -0.12799007 0.040256854 0.123880796
00000000: cf78 213d c158 b03d 6735 6f3c 1406 3e3d
00000010: cc94 2c3e d40f 03be 5fe4 243d 37b5 fd3d

encoder.lstm2.weight_ih_l0 f4 [8, 4]
0.026085043 0.051155966 0.01618252 0.13896371 2.1060784e-10 8.319897e-10 1.821851e-11 4.1345576e-09
0.015641823 0.042501234 0.008402171 0.08856974 -3.084391e-11 -2.0082694e-10 -6.980555e-11 3.5128606e-10
-0.4800696 0.16281594 -0.30451158 0.7453462 -8.487632e-06 1.8140037e-05 -5.3584313e-06 6.0976995e-06
0.031270776 0.06181057 0.015182655 0.1233633 3.2073166e-10 1.0280758e-09 3.6409625e-12 3.8204497e-09
00000000: 4db0 d53c eb88 513d 3491 843c 814c 0e3e
00000010: d690 672f 12b2 6430 7040 a02d f40f 8e31
00000020: 4823 803c c615 2e3d 42a9 093c 0d64 b53d
00000030: 28a7 07ae c2cf 5caf 0881 99ae 1e1f c12f
00000040: afcb f5be 39b9 263e f1e8 9bbe 02cf 3e3f
00000050: 1a66 0eb7 6f2b 9837 93cc b3b6 d79a cc36
00000060: c915 003d 152d 7d3d acc0 783c e6a5 fc3d
00000070: f852 b02f 344c 8d30 e01a 802c 0845 8331

encoder.lstm2.weight_hh_l0 f4 [8, 2]
0.023713045 -2.3375442e-08 -5.9493716e-10 1.3209438e-13 0.033134148 -2.3079133e-06 -6.1358135e-10 8.900954e-14
0.5668764 1.5788735e-05 2.6888407e-05 1.3299455e-09 0.039303068 1.0356517e-06 -5.201455e-10 1.7978696e-13
00000000: dc41 c23c 24cb c8b2 fb88 23b0 9db9 142a
00000010: acb7 073d a6e1 1ab6 f3a8 28b0 826e c829
00000020: d01e 113f 0d72 8437 6a8e e137 4cc9 b630
00000030: 41fc 203d b900 8b35 fcf9 0eb0 106c 4a2a

encoder.lstm2.bias_ih_l0 f4 [8]
0.428551 -5.639862e-09 0.29624885 1.3308674e-09 -0.07538696 5.4519696e-06 0.46398324 -5.6395084e-09
00000000: 096b db3e c0c8 c1b1 eead 973e bce9 b630
00000010: 7a64 9abd 10f0 b636 368f ed3e a4c5 c1b1

encoder.lstm2.bias_hh_l0 f4 [8]
0.428551 -5.639867e-09 0.29624885 1.330865e-09 -0.075386964 5.451969e-06 0.46398324 -5.6395075e-09
00000000: 096b db3e cbc8 c1b1 eead 973e a6e9 b630
00000010: 7b64 9abd 0ff0 b636 368f ed3e a2c5 c1b1

encoder.encoder_out.weight f4 [2, 2]
-0.6479081 -1.3689368 1.3863071 -0.98767704
00000000: 4edd 25bf 5239 afbf 8372 b13f 67d8 7cbf

encoder.encoder_out.bias f4 [2]
0.01 0.01
00000000: 0ad7 233c 0ad7 233c

encoder.encoder_attention.in_proj_weight f4 [6, 2]
0.8196636 0.023678243 0.41349882 0.50529945 0.5865118 0.540416 0.65755314 0.4443277
0.6224522 0.99479216 0.17647398 0.4727016
00000000: 79d5 513f e0f8 c13c 1eb6 d33e 4e5b 013f
00000010: a325 163f b458 0a3f 6755 283f ec7e e33e
00000020: 0759 1f3f b3aa 7e3f 98b5 343e f205 f23e

encoder.encoder_attention.in_proj_bias f4 [6]
0.0 0.0 0.0 0.0 0.0 0.0
00000000: 0000 0000 0000 0000 0000 0000 0000 0000
00000010: 0000 0000 0000 0000

encoder.encoder_attention.out_proj.weight f4 [2, 2]
0.30913848 0.9387148 0.92801994 0.48636538
00000000: 6647 9e3e 9d4f 703f b792 6d3f e204 f93e

encoder.encoder_attention.out_proj.bias f4 [2]
0.0 0.0
00000000: 0000 0000 0000 0000

decoder.lstm1.weight_ih_l0 f4 [8, 2]
-0.03333298 -3.352363e-06 0.07112764 2.8950637e-07 0.10125203 6.4654173e-06 -0.090250336 -4.4078984e-06
-0.9211683 -1.7260681e-05 0.702643 7.0186943e-06 -0.013043018 -6.197036e-06 0.017375384 3.638113e-07
00000000: 2a88 08bd 28f9 60b6 5eab 913d 746d 9b34
00000010: 395d cf3d 83f1 d836 2bd5 b8bd 8fe7 93b6
00000020: b0d1 6bbf 08cb 90b7 69e0 333f 2082 eb36
00000030: 62b2 55bc 22f0 cfb6 d256 8e3c d851 c334

decoder.lstm1.weight_hh_l0 f4 [8, 2]
0.036320552 -0.09894729 -0.06076361 0.022128973 0.07551389 0.0025549484 0.00015342588 0.057177693
0.83487093 -0.446296 -0.5798893 0.5851485 0.08351066 -0.05475907 -0.029196031 0.05440886
00000000: dcc4 143d e0a4 cabd 43e3 78bd d247 b53c
00000010: 07a7 9a3d ec70 273b f2e0 2039 2833 6a3d
00000020: 1aba 553f e980 e4be a073 14bf 4bcc 153f
00000030: a307 ab3d 0c4b 60bd 842c efbc d3db 5e3d

decoder.lstm1.bias_ih_l0 f4 [8]
0.52553093 0.41520092 0.3529475 0.28447673 0.13368468 0.114373766 0.56568575 0.4396163
00000000: 3289 063f 3795 d43e 89b5 b43e efa6 913e
00000010: a3e4 083e cb3c ea3d c8d0 103f 6315 e13e

decoder.lstm1.bias_hh_l0 f4 [8]
0.52553093 0.41520092 0.3529475 0.28447673 0.13368472 0.114373736 0.5656857 0.4396163
00000000: 3289 063f 3795 d43e 89b5 b43e efa6 913e
00000010: a6e4 083e c73c ea3d c7d0 103f 6315 e13e

decoder.lstm2.weight_ih_l0 f4 [8, 2]
0.04711726 0.08202345 -0.01452018 0.041897446 0.077427305 0.06427772 0.008505841 0.0076729697
0.8219962 -0.67826784 0.06810391 -0.11349511 0.07925791 0.10094307 0.0027775536 0.03855722
00000000: 07fe 403d e9fb a73d 0de6 6dbc a89c 2b3d
00000010: 3592 9e3d 0aa4 833d 155c 0b3c 896d fb3b
00000020: 586e 523f f6a2 2dbf 107a 8b3d 2070 e8bd
00000030: f951 a23d 3ebb ce3d 9e07 363b 2dee 1d3d

decoder.lstm2.weight_hh_l0 f4 [8, 2]
-0.03238308 -0.024325881 -0.03759228 -0.0040746275 -0.046218008 -0.069855876 -0.02912102 -0.008989101
0.63488585 0.09943789 0.10155933 0.0032600372 -0.0616307 -0.06827183 -0.056269858 -0.0040981346
00000000: 1fa4 04bd 1247 c7bc 5dfa 19bd 7484 85bb
00000010: 184f 3dbd 9910 8fbd 358f eebc 0647 13bc
00000020: e187 223f 18a6 cb3d 57fe cf3d 59a6 553b
00000030: 7970 7cbd 1ad2 8bbd 397b 66bd a549 86bb

decoder.lstm2.bias_ih_l0 f4 [8]
0.46540204 0.1496667 0.30057782 0.011199599 -0.065897 -0.3228194 0.48789984 0.17236571
00000000: 2d49 ee3e 3a42 193e 56e5 993e 867e 373c
00000010: 02f5 86bd 9648 a5be 02ce f93e a380 303e

decoder.lstm2.bias_hh_l0 f4 [8]
0.46540204 0.14966674 0.30057782 0.011199602 -0.06589702 -0.32281947 0.48789984 0.17236571
00000000: 2d49 ee3e 3d42 193e 56e5 993e 897e 373c
00000010: 04f5 86bd 9848 a5be 02ce f93e a380 303e

decoder.lstm2.weight_ih_l0_reverse f4 [8, 2]
0.02033529 0.021653704 0.042165454 0.10845814 0.015167854 0.009224965 0.02192979 0.059979163
0.061046198 0.05933574 -0.7487304 0.6527006 0.014105747 0.02068781 0.018464414 0.10115675
00000000: 3296 a63c 1c63 b13c afb5 2c3d 4d1f de3d
00000010: 9782 783c 4f24 173c 1aa6 b33c b6ac 753d
00000020: 940b 7a3d 080a 733d ccac 3fbf 6317 273f
00000030: cb1b 673c 7b79 a93c af42 973c 452b cf3d

decoder.lstm2.weight_hh_l0_reverse f4 [8, 2]
0.021573372 0.016203556 0.055538103 0.10076113 0.01615408 0.013003063 0.07448785 0.108597636
0.063033365 0.046431825 0.061481293 0.5467514 0.034773722 0.027013242 0.10679903 0.18188746
00000000: a4ba b03c 52bd 843c ec7b 633d da5b ce3d
00000010: 9055 843c cd0a 553c 168d 983d 7068 de3d
00000020: a317 813d 4c2f 3e3d cfd3 7b3d e6f7 0b3f
00000030: e46e 0e3d e04a dd3c 73b9 da3d b540 3a3e

decoder.lstm2.bias_ih_l0_reverse f4 [8]
0.09935937 0.45015368 0.0755311 0.3252032 0.28476045 0.1433442 0.11737519 0.5407389
00000000: ed7c cb3d 8b7a e63e 0db0 9a3d 0981 a63e
00000010: 1fcc 913e d2c8 123e 6762 f03d dd6d 0a3f

decoder.lstm2.bias_hh_l0_reverse f4 [8]
0.09935934 0.4501537 0.07553108 0.3252032 0.28476045 0.14334424 0.1173752 0.54073894
00000000: e97c cb3d 8c7a e63e 0ab0 9a3d 0981 a63e
00000010: 1fcc 913e d5c8 123e 6962 f03d de6d 0a3f

decoder.decoder_attention.in_proj_weight f4 [12, 4]
0.1923039 1.0089589 0.8258251 1.0488256 0.66298413 -0.10132921 0.31977677 -0.51176536
1.0395914 0.6132356 -0.8964153 1.0589837 -0.018174171 -0.054442644 -0.3351946 -0.3231371
0.061298966 -0.5979077 -1.1392661 -0.6308734 -0.24372089 0.9248594 0.9009901 -0.73380876
-0.047026873 -0.35348147 -0.65519994 -0.21536827 -0.42495668 0.68457186 -0.6073976 0.18843043
-0.6911411 -0.38224906 0.9641484 -0.60127157 -0.07364464 1.1696912 0.41919005 -0.6233938
-0.7353406 -0.4294864 -0.38352793 0.53323793 -0.27229124 1.0329396 -0.67199504 -0.3829823
00000000: 50eb 443e 9125 813f 4669 533f eb3f 863f
00000010: 54b9 293f b085 cfbd c8b9 a33e 0e03 03bf
00000020: 5511 853f 02fd 1c3f 797b 65bf c78c 873f
00000030: 00e2 94bc 40ff 5ebd a09e abbe 3a72 a5be
00000040: a014 7b3d 7b10 19bf 79d3 91bf eb80 21bf
00000050: f891 79be 96c3 6c3f 4aa7 663f e4da 3bbf
00000060: 409f 40bd 86fb b4be 2fbb 27bf 8089 5cbe
00000070: ec93 d9be 1a40 2f3f 697e 1bbf e8f3 403e
00000080: a0ee 30bf 26b6 c3be 6ed2 763f efec 19bf
00000090: 00d3 96bd 71b8 953f 14a0 d63e bc96 1fbf
000000a0: 483f 3cbf a4e5 dbbe c65d c4be 4882 083f
000000b0: c269 8bbe 5d37 843f de07 2cbf 4216 c4be

decoder.decoder_attention.in_proj_bias f4 [12]
0.0 0.0 0.0 0.0 0.0 0.0 0.0 0.0
0.0 0.0 0.0 0.0
00000000: 0000 0000 0000 0000 0000 0000 0000 0000
00000010: 0000 0000 0000 0000 0000 0000 0000 0000
00000020: 0000 0000 0000 0000 0000 0000 0000 0000

decoder.decoder_attention.out_proj.weight f4 [4, 4]
0.44590557 0.97814834 1.1715823 0.19603014 0.051624298 -0.5487292 0.69200385 -0.70992225
-0.32191902 -1.0236378 -1.1774001 0.6845734 0.0832057 0.97633564 0.9745673 0.6426889
00000000: bc4d e43e ee67 7a3f 69f6 953f 20bc 483e
00000010: 0074 533d 8479 0cbf 2a27 313f 77bd 35bf
00000020: 92d2 a4be 9006 83bf 0cb5 96bf 3440 2f3f
00000030: c067 aa3d 22f1 793f 3e7d 793f 4287 243f

decoder.decoder_attention.out_proj.bias f4 [4]
0.0 0.0 0.0 0.0
00000000: 0000 0000 0000 0000 0000 0000 0000 0000

decoder.output_layer.weight f4 [7, 4]
-0.026354063 -0.47289166 0.33277074 0.25931284 -0.63596964 -0.2656343 0.17782515 0.7951542
-0.5507224 -0.12840791 -0.20790905 0.58010906 -0.12044969 -0.32308 0.18549974 0.21700382
-0.481124 -0.17816487 0.080080785 0.5385962 -0.63839465 -0.09587897 0.20483252 0.7638639
-0.30168265 -0.37523407 0.15305282 0.5286044
00000000: 7ae4 d7bc db1e f2be ed60 aa3e a7c4 843e
00000010: e8ce 22bf 3801 88be cc17 363e 3a8f 4b3f
00000020: 25fc 0cbf 5d7d 03be 1ce6 54be 0782 143f
00000030: 54ae f6bd be6a a5be a5f3 3d3e 4036 5e3e
00000040: e355 f6be da70 36be 6501 a43d 71e1 093f
00000050: d56d 23bf 325c c4bd 9ebf 513e 968c 433f
00000060: 2676 9abe ae1e c0be e1b9 1c3e 9e52 073f

decoder.output_layer.bias f4 [7]
0.6159646 0.34739453 0.3005065 0.7390675 0.45745733 0.36276636 0.30118066
00000000: dbaf 1d3f b2dd b13e fddb 993e 8733 3d3f
00000010: d937 ea3e 83bc b93e 5a34 9a3e

exp_avg f4 [8, 7]
0.00012388806 9.3922376e-05 2.6275957e-05 0.00010622569 0.00010103201 0.00012874 9.013993e-05 -0.00010506748
-8.812074e-05 -3.3108208e-06 -8.2431536e-05 -7.6973796e-05 -9.530533e-05 -6.7132314e-05 6.0752624e-05 4.9429975e-05
1.9770472e-05 5.495459e-05 5.0576295e-05 6.1542916e-05 4.8665534e-05 -3.8406324e-05 -3.2365704e-05 -1.351325e-06
-3.0407627e-05 -2.8718023e-05 -3.714928e-05 -2.7860226e-05 0.0029674573 0.0026360473 0.00048409373 0.0024608555
0.002525416 0.0030113752 0.002074871 -0.00069902244 -0.00058148254 -5.659801e-05 -0.00055763364 -0.0005338746
-0.00066440855 -0.00047181954 0.00012312182 9.2605944e-05 3.2535256e-05 0.000107198444 0.0001009925 0.0001263574
9.778155e-05 -0.000107113745 -9.0281304e-05 -7.758999e-06 -8.644922e-05 -7.972313e-05 -9.816658e-05 -7.412926e-05
00000000: f3e7 0139 31f8 c438 306b dc37 7cc5 de38
00000010: 26e1 d338 61fe 0639 8209 bd38 ac57 dcb8
00000020: 76cd b8b8 782f 5eb6 18df acb8 fe6c a1b8
00000030: a9de c7b8 63c9 8cb8 a2d0 7e38 0853 4f38
00000040: c4d8 a537 0b7f 6638 e221 5438 9a10 8138
00000050: 381e 4c38 7a16 21b8 69c0 07b8 2c5f b5b5
00000060: e213 ffb7 7ce7 f0b7 bcd0 1bb8 61b5 e9b7
00000070: ac79 423b 89c1 2c3b f6cd fd39 4e46 213b
00000080: 7381 253b 7e5a 453b 8ffa 073b 9a3e 37ba
00000090: a26e 18ba a763 6db8 292e 12ba b8f3 0bba
000000a0: b42b 2eba 8c5e f7b9 431a 0139 7035 c238
000000b0: 7776 0838 bacf e038 f0cb d338 ce7e 0439
000000c0: 1210 cd38 41a2 e0b8 6855 bdb8 a62c 02b7
000000d0: 124c b5b8 0831 a7b8 c8de cdb8 d875 9bb8

exp_avg_sq f4 [8, 7]
6.426347e-07 3.413358e-07 1.2534458e-07 6.857329e-07 3.1108368e-07 2.9329613e-07 2.2368404e-07 2.4341267e-07
1.9837142e-07 8.7221636e-08 2.5860544e-07 1.6664367e-07 1.7183635e-07 1.2625914e-07 9.897492e-08 5.1776794e-08
1.983057e-08 1.0768029e-07 4.9307936e-08 4.2069882e-08 3.6165403e-08 3.838051e-08 2.9656766e-08 1.3192482e-08
4.093565e-08 2.5575794e-08 2.4770893e-08 1.893939e-08 0.00019199488 0.0001437673 5.483558e-05 0.00020118212
0.00012085498 0.0001209667 9.334694e-05 1.166266e-05 8.775064e-06 3.46064e-06 1.2326944e-05 7.337251e-06
7.3774736e-06 5.6346544e-06 6.515742e-07 3.2723221e-07 1.3082514e-07 7.093674e-07 3.1239983e-07 2.743208e-07
2.2035755e-07 2.5705384e-07 2.0448189e-07 9.182635e-08 2.739071e-07 1.7445142e-07 1.7359521e-07 1.3033066e-07
00000000: 8581 2c35 d640 b734 7596 0634 3513 3835
00000010: 0403 a734 5076 9d34 cd2d 7034 62ae 8234
00000020: ecff 5434 9a4e bb33 76d6 8a34 aaee 3234
00000030: 0482 3834 d991 0734 0a8c d433 3061 5e33
00000040: e257 aa32 de3d e733 a6c6 5333 53b0 3433
00000050: 4854 1b33 d1d7 2433 ebbf fe32 26a5 6232
00000060: 39d1 2f33 c4b1 db32 c5c7 d432 29b0 a232
00000070: 3c52 4939 3ec0 1639 41ff 6538 6af4 5239
00000080: 8673 fd38 81af fd38 42c3 c338 beaa 4337
00000090: 9d38 1337 583d 6836 d2cf 4e37 8232 f636
000000a0: 048c f736 5011 bd36 d7e7 2e35 74ae af34
000000b0: f178 0c34 5b6b 3e35 e8b7 a734 5d46 9334
000000c0: 6c9b 6c34 3601 8a34 8e8f 5b34 1232 c533
000000d0: 810d 9334 d750 3b34 7d65 3a34 05f1 0b34

exp_avg f4 [8, 2]
2.1530643e-06 7.5854005e-06 -4.039073e-06 -5.3280432e-06 2.9298167e-06 7.4267937e-06 -2.8124628e-06 -3.4213238e-06
8.294238e-05 0.0001774274 -2.0173678e-05 -3.8953644e-05 2.6916462e-06 1.0905971e-05 -5.682731e-06 -7.806351e-06
00000000: 5d7d 1036 1886 fe36 5f87 87b6 8bc7 b2b6
00000010: de9d 4436 ac33 f936 bebd 3cb6 e599 65b6
00000020: 5af1 ad38 ce0b 3a39 a53a a9b7 2862 23b8
00000030: 21a2 3436 caf8 3637 4aae beb6 06f8 02b7

exp_avg_sq f4 [8, 2]
2.5250482e-09 2.9468992e-09 2.0956382e-10 1.0694958e-09 1.1288281e-09 1.0395658e-09 1.1577819e-10 5.6126154e-10
2.3752098e-07 8.0645475e-07 1.7041689e-08 5.0623818e-08 5.2122915e-09 4.9451567e-09 4.694818e-10 2.3079156e-09
00000000: 1e85 2d31 6682 4a31 f96a 662f 8afd 9230
00000010: 1c25 9b30 78e0 8e30 5499 fe2e 4547 1a30
00000020: 4509 7f34 267b 5835 1263 9232 7a6d 5933
00000030: cd17 b331 0fea a931 d80c 0130 4899 1e31

exp_avg f4 [8]
0.000101160804 -9.690232e-05 5.41727e-05 -3.6600977e-05 0.0028907899 -0.0006119414 9.832588e-05 -0.000100066085
00000000: 4b26 d438 0938 cbb8 7e37 6338 0084 19b8
00000010: 6873 3d3b b16a 20ba 4e34 ce38 92da d1b8

exp_avg_sq f4 [8]
8.667266e-07 2.7668554e-07 1.3494483e-07 4.485619e-08 0.00021918201 1.3546762e-05 9.10721e-07 2.95772e-07
00000000: 00a9 6835 5f8b 9434 5ae5 1034 e7a7 4033
00000010: 39d4 6539 e646 6337 4578 7435 98ca 9e34

exp_avg f4 [8]
0.00010116083 -9.69023e-05 5.4172702e-05 -3.6600984e-05 0.00289079 -0.00061194145 9.832588e-05 -0.000100066085
00000000: 4f26 d438 0738 cbb8 7f37 6338 0284 19b8
00000010: 6973 3d3b b26a 20ba 4e34 ce38 92da d1b8

exp_avg_sq f4 [8]
8.667266e-07 2.7668557e-07 1.3494481e-07 4.485619e-08 0.00021918202 1.3546761e-05 9.1072087e-07 2.95772e-07
00000000: 00a9 6835 608b 9434 59e5 1034 e7a7 4033
00000010: 3ad4 6539 e546 6337 4378 7435 98ca 9e34

exp_avg f4 [8, 7]
5.3818854e-05 4.156679e-05 1.3166982e-05 4.791333e-05 4.4488403e-05 5.7971636e-05 4.443586e-05 -0.000736599
-0.00061770563 -9.0904396e-05 -0.0005997749 -0.00055113924 -0.00066298747 -0.00051384675 1.887661e-05 1.4408682e-05
2.1057542e-06 1.5288486e-05 1.5604855e-05 2.2113527e-05 1.1761538e-05 -0.00038195294 -0.00032362476 -2.5346185e-06
-0.00029036475 -0.00027981697 -0.00035156985 -0.00023654883 0.0014617059 0.0012135245 0.00020137071 0.0011873164
0.0011183054 0.0013738543 0.0010437892 -0.0037398147 -0.0031613433 -0.0004524854 -0.003160547 -0.0030220598
-0.003409855 -0.0027154377 5.4131757e-05 4.10468e-05 1.1681992e-05 4.8570306e-05 4.487612e-05 5.8826725e-05
4.063191e-05 -0.0007488682 -0.0006390484 -3.760708e-05 -0.00059355074 -0.0005522205 -0.00067320577 -0.00048445916
00000000: 8ebb 6138 0058 2e38 c2e7 5c37 8cf6 4838
00000010: 0f99 3a38 9226 7338 a460 3a38 5218 41ba
00000020: 86ed 21ba eda3 beb8 363a 1dba 547a 10ba
00000030: 56cc 2dba acb3 06ba 3659 9e37 d1bc 7137
00000040: 9550 0d36 c63f 8037 2ce7 8237 7080 b937
00000050: 6c53 4537 db40 c8b9 2eac a9b9 6a18 2ab6
00000060: 193c 98b9 66b4 92b9 e852 b8b9 180a 78b9
00000070: b696 bf3a 200f 9f3a 0a27 5339 ba9f 9b3a
00000080: 1a94 923a e712 b43a c1cf 883a ae17 75bb
00000090: 8a2e 4fbb 903b edb9 2e21 4fbb c00d 46bb
000000a0: e077 5fbb 7cf5 31bb 880b 6338 aa29 2c38
000000b0: c6fd 4337 f8b7 4b38 5e39 3c38 b7bc 7638
000000c0: 2e6c 2a38 b24f 44ba d085 27ba 4bbc 1db8
000000d0: 8498 1bba e4c2 10ba 137a 30ba 02ff fdb9

exp_avg_sq f4 [8, 7]
1.8372806e-07 8.7791015e-08 3.2813233e-08 1.9463707e-07 8.590077e-08 6.9056846e-08 6.955432e-08 1.063147e-05
8.494121e-06 3.6978386e-06 1.1328015e-05 7.194884e-06 7.17333e-06 5.324941e-06 3.046892e-08 1.7484536e-08
6.243431e-09 3.198761e-08 1.5683947e-08 1.5216367e-08 1.3093994e-08 2.4327155e-06 2.035882e-06 7.836092e-07
2.5545642e-06 1.654283e-06 1.7592932e-06 1.2655238e-06 4.799421e-05 3.469711e-05 1.3942567e-05 5.08832e-05
2.9811354e-05 2.8558503e-05 2.2523227e-05 0.00046876335 0.00029823653 0.00011469338 0.0004937645 0.00026414756
0.00023671426 0.00020683453 1.9186461e-07 9.813836e-08 3.5365485e-08 2.0229034e-07 9.2229435e-08 8.05932e-08
7.5760674e-08 1.052509e-05 8.8110555e-06 3.8087005e-06 1.1208124e-05 7.316182e-06 7.637376e-06 5.4433426e-06
00000000: c946 4534 9f87 bc33 88ee 0c33 6efd 5034
00000010: 7378 b833 674c 9433 e45d 9533 d15d 3237
00000020: f981 0e37 6228 7836 740d 3e37 956b f136
00000030: 6fb2 f036 e5ac b236 efdc 0233 e730 9632
00000040: cd85 d631 c062 0933 5db9 8632 25b5 8232
00000050: fff3 6032 bc41 2336 30a0 0836 3759 5235
00000060: 146f 2b36 bb08 de35 db20 ec35 11db a935
00000070: 644d 4938 bd87 1138 dfea 6937 6c6b 5538
00000080: 6513 fa37 eb90 ef37 43f0 bc37 5ac4 f539
00000090: a15c 9c39 8a87 f038 fa6f 013a 497d 8a39
000000a0: 8036 7839 b9e1 5839 5803 4e34 22c0 d233
000000b0: c3e4 1733 2535 5934 ab0f c633 9512 ad33
000000c0: dfb1 a233 eb94 3037 32d3 1337 fa98 7f36
000000d0: 870a 3c37 867d f536 4822 0037 f5a5 b636

exp_avg f4 [8, 2]
9.749621e-07 1.1250937e-05 -1.0589349e-05 -0.00010281705 7.728825e-07 6.738438e-06 -1.1243199e-05 -0.000111041576
1.8858103e-05 0.00024411941 -6.0679784e-05 -0.00057559623 1.096555e-06 1.4937717e-05 -1.7266411e-05 -0.00016280779
00000000: 71db 8235 68c2 3c37 e8a8 31b7 7c9f d7b8
00000010: 1578 4f35 be1a e236 2ca1 3cb7 fede e8b8
00000020: 7831 9e37 4efa 7f39 6c82 7eb8 9ce3 16ba
00000030: 582d 9335 029d 7a37 56d7 90b7 62b7 2ab9

exp_avg_sq f4 [8, 2]
2.6453145e-10 1.9782358e-09 7.82324e-09 2.3891275e-07 1.7211112e-10 1.2160802e-09 4.462372e-09 2.2871752e-07
4.66022e-08 1.1260688e-06 4.7528079e-07 6.942422e-06 5.872469e-10 4.280676e-09 1.3010623e-08 5.903612e-07
00000000: 7e6d 912f 7ef1 0731 f966 0632 eb43 8034
00000010: f93c 3d2f 0523 a730 7053 9931 6595 7534
00000020: a927 4833 6e23 9735 182a ff34 f3f2 e836
00000030: d46b 2130 3915 9331 5385 5f32 5079 1e35

exp_avg f4 [8]
4.5194807e-05 -0.00070195383 1.5664402e-05 -0.00035675455 0.0013428121 -0.0036244853 4.4749064e-05 -0.0007069212
00000000: 8e8f 3d38 5303 38ba 0c67 8337 c90a bbb9
00000010: 4c01 b03a c688 6dbb f1b0 3b38 ae50 39ba

exp_avg_sq f4 [8]
2.3647183e-07 1.2360766e-05 3.6660996e-08 2.7460446e-06 5.637276e-05 0.0005593513 2.4054776e-07 1.209713e-05
00000000: e2e8 7d34 1661 4f37 3175 1d33 b048 3836
00000010: ca71 6c38 6ea1 123a a224 8134 c7f4 4a37

exp_avg f4 [8]
4.51948e-05 -0.00070195383 1.5664402e-05 -0.00035675455 0.0013428123 -0.0036244853 4.474906e-05 -0.0007069211
00000000: 8c8f 3d38 5303 38ba 0c67 8337 c90a bbb9
00000010: 4e01 b03a c688 6dbb f0b0 3b38 ac50 39ba

exp_avg_sq f4 [8]
2.3647183e-07 1.2360766e-05 3.6660996e-08 2.7460446e-06 5.637276e-05 0.0005593513 2.405478e-07 1.209713e-05
00000000: e2e8 7d34 1661 4f37 3175 1d33 b048 3836
00000010: ca71 6c38 6ea1 123a a324 8134 c7f4 4a37

exp_avg f4 [8, 4]
-4.0673618e-05 -4.3507524e-05 -2.5059446e-05 -0.00013152216 2.2799315e-14 8.4749793e-14 1.9769434e-14 -4.283327e-13
-3.359463e-05 -4.337112e-05 -1.4646312e-05 -9.025021e-05 1.7782401e-14 6.594719e-14 8.301869e-15 1.02228535e-13
-0.00054679025 -0.0013647899 -0.00034826066 -0.0038199853 -2.0329045e-09 -7.571163e-09 -1.7895959e-09 -4.6618105e-08
-4.6570156e-05 -5.0587834e-05 -2.0387079e-05 -0.00010318681 2.6825937e-14 7.706215e-14 2.0801591e-14 -2.4431295e-13
00000000: f798 2ab8 d97b 36b8 c036 d2b7 36e9 09b9
00000010: a45b cd28 eed6 be29 3611 b228 3f21 f1aa
00000020: f6e7 0cb8 63e9 35b8 6eb9 75b7 b644 bdb8
00000030: 6d2b a028 f77f 9429 9d8d 1528 bd32 e629
00000040: 7956 0fba c0e2 b2ba c196 b6b9 b858 7abb
00000050: 3cb3 0bb1 5412 02b2 cff5 f5b0 2639 48b3
00000060: 5354 43b8 462e 54b8 eb04 abb7 ff65 d8b8
00000070: 66a0 f128 4e87 ad29 345d bb28 3589 89aa

exp_avg_sq f4 [8, 4]
6.593919e-08 1.228795e-07 2.603837e-08 8.8588814e-07 2.4289888e-18 3.767453e-18 1.6360775e-18 1.5753511e-17
3.1987398e-08 1.03549695e-07 8.804596e-09 3.763622e-07 9.193064e-19 1.2501015e-18 3.045956e-19 3.0570308e-18
2.3120985e-05 5.013229e-05 1.16866195e-05 0.0003390251 1.0022536e-13 1.9389354e-13 5.5263316e-14 1.196211e-12
9.188201e-08 1.623758e-07 2.0995575e-08 5.6053386e-07 2.9684057e-18 4.2806857e-18 1.3634164e-18 1.2360755e-17
00000000: 749a 8d33 dcf0 0334 fbaa df32 c5cd 6d35
00000010: 4d3a 3322 96fe 8a22 4371 f121 ed4c 9123
00000020: 8462 0933 0c5f de33 0643 1732 d40e ca34
00000030: 6aaa 8721 807b b821 30cd b320 ae91 6122
00000040: f0f3 c137 2345 5238 a611 4437 2ebf b139
00000050: fdaf e129 024e 5a2a 44e2 7829 0b5a a82b
00000060: ab50 c533 8559 2e34 c259 b432 9877 1635
00000070: 9907 5b22 efed 9d22 6a34 c921 0404 6423

exp_avg f4 [8, 2]
-8.213326e-06 1.2931559e-11 1.05321927e-13 -7.335247e-18 -1.9229494e-05 1.0506629e-09 6.1224355e-14 -4.871726e-18
-0.00080554327 -2.1395863e-08 8.4105123e-10 -6.9084126e-13 -1.2580215e-05 -8.943134e-10 1.4610394e-13 -1.0150642e-17
00000000: f7cb 09b7 907e 632d f529 ed29 b94f 07a3
00000010: 064f a1b7 ea66 9030 70dd 8929 27bc b3a2
00000020: 182b 53ba 00ca b7b2 b82f 6730 5c74 42ab
00000030: 9d0f 53b7 b6d3 75b0 987f 242a 0d3f 3ba3

exp_avg_sq f4 [8, 2]
4.021874e-08 1.9806529e-14 6.210776e-19 5.694841e-22 7.559193e-08 2.7143035e-14 2.8565928e-19 2.5875304e-22
2.453055e-05 1.0687749e-11 7.3614224e-14 2.97381e-17 1.08649154e-07 4.0225906e-14 1.0478712e-18 1.0436566e-21
00000000: f9bc 2c33 bf66 b228 4c4f 3721 b31d 2c1c
00000010: 1a55 a233 947b f428 9c9f a820 1868 9c1b
00000020: f4c6 cd37 5805 3c2d b6c3 a529 8d24 0924
00000030: 8152 e933 5029 3529 74a3 9a21 82b6 9d1c

exp_avg f4 [8]
-0.0004671803 1.0372423e-12 -0.0003611483 -6.908609e-13 -0.0094094 -9.134581e-08 -0.00046542662 1.037286e-12
00000000: e1ef f4b9 98fa 912b 8158 bdb9 c675 42ab
00000010: e229 1abc e429 c4b3 8104 f4b9 2bfc 912b

exp_avg_sq f4 [8]
9.656315e-06 1.2512392e-16 5.3909225e-06 2.9734493e-17 0.003607489 1.4213071e-11 1.0054806e-05 1.2512761e-16
00000000: 8f01 2237 1042 1025 ace3 b436 4b20 0924
00000010: 9f6b 6c3b fb09 7a2d 10b1 2837 2743 1025

exp_avg f4 [8]
-0.0004671803 1.0372423e-12 -0.0003611483 -6.9086056e-13 -0.0094094 -9.13458e-08 -0.00046542662 1.037286e-12
00000000: e1ef f4b9 98fa 912b 8158 bdb9 c075 42ab
00000010: e229 1abc e229 c4b3 8104 f4b9 2bfc 912b

exp_avg_sq f4 [8]
9.656315e-06 1.251239e-16 5.3909225e-06 2.9734493e-17 0.0036074892 1.4213071e-11 1.0054806e-05 1.2512761e-16
00000000: 8f01 2237 0f42 1025 ace3 b436 4b20 0924
00000010: a06b 6c3b fb09 7a2d 10b1 2837 2743 1025

exp_avg f4 [8, 2]
0.00014416645 -6.562496e-09 -5.5437846e-05 -8.8580654e-10 6.603016e-05 -7.3872614e-10 -1.4565008e-05 -6.496729e-10
0.0010195985 2.1594051e-08 -0.0004140103 -2.0117412e-08 0.00017570698 -7.146541e-09 -4.1656887e-05 -8.262111e-10
00000000: 632b 1739 537c e1b1 ef85 68b8 187d 73b0
00000010: ac79 8a38 3b0f 4bb0 3c5c 74b7 ab94 32b0
00000020: 0ca4 853a d27d b932 860f d9b9 a8ce acb2
00000030: fc3d 3839 a48d f5b1 beb8 2eb8 701b 63b0

exp_avg_sq f4 [8, 2]
2.826046e-07 8.476053e-14 1.1170043e-07 5.474516e-14 1.514774e-08 1.7639405e-14 1.7810233e-08 1.4203608e-14
4.0855637e-05 1.0010034e-11 1.9114203e-05 6.5369663e-12 3.393948e-07 1.06037134e-13 9.6650055e-08 5.612948e-14
00000000: e1b8 9734 1edd be29 f6df ef33 df8c 7629
00000010: 3c1e 8232 b3e1 9e28 1efd 9832 95de 7f28
00000020: 685c 2b38 2f19 302d 7057 a037 c2ff e52c
00000030: 1136 b634 3fc6 ee29 ee8d cf33 e2c8 7c29

exp_avg f4 [8, 2]
-5.0883027e-05 2.7984868e-05 -4.5812616e-05 -3.5928377e-05 -3.713131e-05 3.2834276e-05 -4.0205174e-05 -3.7706937e-05
0.00018598785 0.00037297115 -0.00025840776 -0.0004304786 -0.00010890774 3.835487e-05 -6.20256e-05 -6.071607e-05
00000000: 3c6b 55b8 0cc1 ea37 ec26 40b8 cdb1 16b8
00000010: 71bd 1bb8 89b7 0938 faa1 28b8 8427 1eb8
00000020: bc05 4339 578b c339 e77a 87b9 dcb1 e1b9
00000030: 6665 e4b8 3adf 2038 be13 82b8 62a9 7eb8

exp_avg_sq f4 [8, 2]
1.3921372e-07 5.4353126e-08 1.8315049e-08 3.4844057e-08 1.3831979e-07 2.05185e-08 2.40091e-08 4.1184727e-08
7.0828933e-06 8.342844e-06 9.123175e-06 4.6075475e-06 5.055072e-07 7.1620136e-08 4.5197062e-08 1.05168894e-07
00000000: c77a 1534 e571 6933 3853 9d32 72a7 1533
00000010: 0e85 1434 a940 b032 923c ce32 16e3 3033
00000020: 97a9 ed36 3ef8 0b37 bd0f 1937 889a 9a36
00000030: 31b2 0735 96cd 9933 b21e 4233 36d9 e133

exp_avg f4 [8]
-6.1814295e-05 -0.00044234953 6.2982945e-06 -0.00022098239 0.0039131828 -0.0043394985 -0.00019809406 -0.00045805392
00000000: 4ca2 81b8 26eb e7b9 f055 d336 82b7 67b9
00000010: 283a 803b 5a32 8ebb 78b7 4fb9 f526 f0b9

exp_avg_sq f4 [8]
9.080271e-06 4.876428e-06 1.8360644e-06 1.2083767e-06 0.0009395365 0.00057387364 1.1784112e-05 5.3731324e-06
00000000: 7857 1837 33a0 a336 b16e f635 822f a235
00000010: 3a4b 763a 0270 163a 60b4 4537 db4a b436

exp_avg f4 [8]
-6.1814295e-05 -0.00044234958 6.2982945e-06 -0.00022098237 0.0039131814 -0.004339498 -0.00019809412 -0.0004580539
00000000: 4ca2 81b8 28eb e7b9 f055 d336 81b7 67b9
00000010: 253a 803b 5932 8ebb 7cb7 4fb9 f426 f0b9

exp_avg_sq f4 [8]
9.0802705e-06 4.8764277e-06 1.8360643e-06 1.2083765e-06 0.0009395365 0.00057387364 1.1784112e-05 5.373133e-06
00000000: 7757 1837 32a0 a336 b06e f635 802f a235
00000010: 3a4b 763a 0270 163a 60b4 4537 dc4a b436

exp_avg f4 [8, 2]
-8.090924e-05 -2.2464867e-05 6.684132e-05 -3.2511856e-05 -3.5685436e-05 -1.2234128e-05 1.9207548e-05 -9.82864e-06
-0.00010225567 0.00065817335 -0.00019793356 8.759792e-05 -8.787233e-05 -2.0783165e-05 7.772027e-05 -4.0214305e-05
00000000: d1ad a9b8 ef72 bcb7 292d 8c38 575d 08b8
00000010: f2ac 15b8 2e41 4db7 e51f a137 b0e5 24b7
00000020: 1872 d6b8 4489 2c3a 638c 4fb9 c6b4 b738
00000030: 1948 b8b8 8257 aeb7 c1fd a238 c8ab 28b8

exp_avg_sq f4 [8, 2]
1.1846639e-07 1.4226546e-07 3.3199126e-07 2.8249337e-07 5.32469e-08 4.911894e-08 1.02321906e-07 8.927777e-08
2.8836894e-05 1.8202123e-05 2.7145552e-06 1.9121537e-06 1.7112616e-07 2.0736226e-07 5.809648e-07 5.106747e-07
00000000: 9667 fe33 a2c1 1834 883c b234 98a9 9734
00000010: 96b1 6433 d8f6 5233 10bc db33 f9b8 bf33
00000020: c2e6 f137 c3b0 9837 b42b 3636 8d52 0036
00000030: cdbe 3734 4ea7 5e34 99f3 1b35 4c15 0935

exp_avg f4 [8, 2]
-4.516509e-06 3.6732064e-05 1.5280288e-05 -1.1404942e-05 -5.3174062e-08 1.9672349e-05 1.1615385e-05 -5.787658e-06
-0.00022634173 -0.00021345729 -4.8352038e-05 3.6031593e-05 -6.892458e-06 4.0099763e-05 2.3241098e-05 -1.9612147e-05
00000000: 848c 97b6 c110 1a38 2b2e 8037 da57 3fb7
00000010: 8061 64b3 0c06 a537 b3df 4237 9b33 c2b6
00000020: 2556 6db9 81d3 5fb9 9bcd 4ab8 a120 1738
00000030: c345 e7b6 cb30 2838 e1f5 c237 c484 a4b7

exp_avg_sq f4 [8, 2]
2.2992714e-08 6.157421e-08 4.647748e-08 1.3461624e-07 1.47669885e-08 4.2163947e-08 2.653744e-08 7.410962e-08
3.8147728e-06 7.5981616e-06 3.080564e-07 9.632424e-07 5.733674e-08 1.317779e-07 1.3685438e-07 3.553367e-07
00000000: 8381 c532 c83a 8433 889e 4733 088b 1034
00000010: e7b1 7d32 c017 3533 73f4 e332 3226 9f33
00000020: a600 8036 b6f3 fe36 f362 a534 c248 8135
00000030: 6a42 7633 d57e 0d34 3ff2 1234 1bc5 be34

exp_avg f4 [8]
-0.00023640117 0.00011655249 -8.753627e-05 3.8846145e-05 0.0013978132 -0.0003479362 -0.00021734757 0.00013643302
00000000: 75e2 77b9 a46d f438 ad93 b7b8 bbee 2238
00000010: d436 b73a 356b b6b9 cbe7 63b9 760f 0f39

exp_avg_sq f4 [8]
3.2342875e-06 6.4417723e-06 8.0894364e-07 1.347814e-06 0.00039218523 4.765388e-05 3.3474412e-06 8.617024e-06
00000000: a30c 5936 6726 d836 2f26 5935 89e6 b435
00000010: 369e cd39 f7df 4738 9aa4 6036 d691 1037

exp_avg f4 [8]
-0.00023640117 0.00011655263 -8.753626e-05 3.884617e-05 0.0013978132 -0.0003479364 -0.00021734751 0.00013643297
00000000: 75e2 77b9 b76d f438 ac93 b7b8 c2ee 2238
00000010: d436 b73a 3c6b b6b9 c7e7 63b9 720f 0f39

exp_avg_sq f4 [8]
3.2342875e-06 6.441773e-06 8.089436e-07 1.347814e-06 0.00039218523 4.765388e-05 3.3474407e-06 8.617024e-06
00000000: a30c 5936 6926 d836 2e26 5935 89e6 b435
00000010: 369e cd39 f7df 4738 98a4 6036 d691 1037

exp_avg f4 [8, 2]
-2.9563518e-05 -0.00010806754 -0.00012936642 -9.736622e-05 -1.8520332e-06 -3.7895243e-05 -4.733463e-05 -4.8254333e-05
-8.193103e-05 -0.00031714348 0.0014158513 -0.0009538093 -2.2267883e-05 -0.00010311352 -0.00010614386 -8.004497e-05
00000000: 2cff f7b7 52a2 e2b8 89a6 07b9 1731 ccb8
00000010: 6093 f8b5 b5f1 1eb8 2c89 46b8 b264 4ab8
00000020: 63d2 abb8 4746 a6b9 1694 b93a 0f09 7aba
00000030: eacb bab7 a63e d8b8 8d99 deb8 d1dd a7b8

exp_avg_sq f4 [8, 2]
2.1346493e-07 2.735789e-07 1.7988044e-07 3.1622432e-07 1.755721e-08 2.1519652e-08 3.123464e-08 5.23264e-08
1.8309083e-06 2.3531923e-06 8.446336e-05 1.7254586e-05 2.0098818e-07 2.659285e-07 1.1073066e-07 2.684939e-07
00000000: cb34 6534 66e0 9234 2925 4134 8ac5 a934
00000010: b7d0 9632 37da b832 da26 0633 7cbd 6033
00000020: 88bd f535 89eb 1d36 ec21 b138 f1bd 9037
00000030: 36cf 5734 efc4 8e34 d3ca ed33 8525 9034

exp_avg f4 [8, 2]
-4.3734195e-05 -7.89798e-05 -4.456389e-05 -7.0997005e-05 -3.252837e-05 -5.891319e-05 -6.1865176e-05 -6.370096e-05
-0.00012407429 -0.00022754238 0.0001935283 -0.0006037303 -7.0442926e-05 -0.00013008344 -8.434717e-05 -0.0001163242
00000000: 3c6f 37b8 f5a1 a5b8 1dea 3ab8 3ae4 94b8
00000010: 126f 08b8 8e19 77b8 9dbd 81b8 3197 85b8
00000020: f019 02b9 7198 6eb9 dced 4a39 a843 1eba
00000030: c2ba 93b8 0267 08b9 8be3 b0b8 14f3 f3b8

exp_avg_sq f4 [8, 2]
5.028653e-08 7.019888e-08 6.9411506e-08 1.10147525e-07 2.3907129e-08 3.4107266e-08 5.5216734e-08 9.4974645e-08
4.1948542e-07 5.7939616e-07 8.654338e-06 4.911832e-06 1.3541602e-07 1.9775995e-07 1.6096503e-07 3.1580987e-07
00000000: a0fa 5733 3ec0 9633 610f 9533 3e8a ec33
00000010: 555c cd32 567d 1233 7127 6d33 ddf4 cb33
00000020: a335 e134 cd87 1b35 1932 1137 51d0 a436
00000030: df66 1134 d757 5434 bbd5 2c34 948c a934

exp_avg f4 [8]
-0.0003507845 -0.0004961826 -0.00014974833 -0.00030280833 -0.0010120771 0.0011667887 -0.00040398227 -0.0005036893
00000000: 80e9 b7b9 4012 02ba c305 1db9 3fc2 9eb9
00000010: aca7 84ba efee 983a 95cd d3b9 040a 04ba

exp_avg_sq f4 [8]
4.335643e-06 4.4310464e-06 5.961941e-07 1.3346712e-06 3.700683e-05 0.0005599711 5.4864445e-06 4.6978025e-06
00000000: e47a 9136 66ae 9436 260a 2035 f422 b335
00000010: c837 1b38 06cb 123a 3318 b836 d1a1 9d36

exp_avg f4 [8]
-0.00035078463 -0.00049618253 -0.00014974836 -0.00030280833 -0.0010120772 0.0011667887 -0.00040398227 -0.0005036892
00000000: 84e9 b7b9 3f12 02ba c505 1db9 3fc2 9eb9
00000010: ada7 84ba efee 983a 95cd d3b9 030a 04ba

exp_avg_sq f4 [8]
4.335643e-06 4.431046e-06 5.961941e-07 1.3346712e-06 3.700683e-05 0.0005599711 5.4864445e-06 4.697803e-06
00000000: e47a 9136 65ae 9436 260a 2035 f422 b335
00000010: c837 1b38 06cb 123a 3318 b836 d2a1 9d36

exp_avg f4 [7, 4]
0.0007390035 -0.000693671 0.000118149364 -0.0008823127 0.0011881035 0.0016914464 -0.0015457844 -0.0019025363
-0.0010385718 -0.002892924 0.0026110336 0.0028150273 0.0002773645 -0.00068615004 0.0008173315 5.858403e-05
0.0004520531 4.7224603e-07 -9.48452e-05 -0.00072567654 0.0002695521 0.0012044876 -0.0011711692 -0.0010712842
7.067374e-05 -0.00050147116 0.000101221856 -0.00026885583
00000000: afb9 413a 79d7 35ba f5c6 f738 014b 67ba
00000010: 23ba 9b3a 86b3 dd3a eb9b caba 865e f9ba
00000020: b020 88ba 3697 3dbb e01d 2b3b 527c 383b
00000030: 3c6b 9139 c0de 33ba 3042 563a 20b8 7538
00000040: 8a01 ed39 0089 fd34 a1e7 c6b8 543b 3eba
00000050: ac52 8d39 e6df 9d3a eb81 99ba 556a 8cba
00000060: ad36 9438 2975 03ba 1247 d438 38f5 8cb9

exp_avg_sq f4 [7, 4]
6.0508923e-05 0.0001025714 7.0333655e-05 0.00011875165 2.7925114e-05 6.168829e-05 4.6367863e-05 6.1862884e-05
7.1939845e-05 0.00013135427 0.00011214489 0.0002177215 7.734419e-06 2.8428587e-05 2.2814853e-05 1.9950445e-05
6.3102098e-06 7.439621e-06 5.2723813e-06 8.672712e-06 1.3375589e-05 2.2535378e-05 1.7540311e-05 2.7505479e-05
2.2183225e-05 6.0425744e-05 4.4604705e-05 4.887415e-05
00000000: f6ca 7d38 9a1b d738 1880 9338 4e0a f938
00000010: ba40 ea37 a65e 8138 1d7b 4238 62bc 8138
00000020: 69de 9638 25bc 0939 542f eb38 2c4c 6439
00000030: 14c3 0137 ed79 ee37 8662 bf37 415b a737
00000040: 4abc d336 dca1 f936 69e9 b036 0481 1137
00000050: b867 6037 5b0a bd37 8823 9337 91bb e637
00000060: 1d16 ba37 a671 7d38 f015 3b38 38fe 4c38

exp_avg f4 [7]
0.00055868144 -0.0072745476 0.011491767 0.0026554496 -0.00026754226 -0.0051646857 0.00029494657
00000000: 7a74 123a 545f eebb f747 3c3c 0d07 2e3b
00000010: ea44 8cb9 863c a9bb 0fa3 9a39

exp_avg_sq f4 [7]
0.0014247863 0.00089787855 0.0020040236 0.00042870073 0.00010234317 0.00032712685 0.0008762785
00000000: e5bf ba3a 9c5f 6b3a f055 033b 3dc3 e039
00000010: 12a1 d638 3982 ab39 0eb6 653a
